pytorch-trpo/save_model/Qube-100-v0_episode399.pt (torch, 81047 bytes, 13 tensors)

action_log_std f8 [1, 1]
-0.32701892871732247
00000000: 01e3 00cd e0ed d4bf

weight f8 [64, 6]
-0.10243960249078689 0.2839635819915467 0.2777826064762185 -0.41957436729301834 0.3828435106980854 0.1973473134925247 -0.1336394724835751 0.45229497242554423
-0.23981444777646774 -0.36993401759666933 -0.21644287522986144 -0.22785739245916886 -0.0008846610543990134 0.21110309134624186 0.3166851485323993 -0.44116514238355425
0.21213389417501097 0.1627262136421362 -0.35093326406417663 0.35207294959002866 -0.33705050242599743 -0.22778233205771578 -0.3197409676507713 0.406561208438062
0.10933592339975015 -0.3658050798552593 0.031033496703288206 -0.23385235236887827 -0.07856519371126006 -0.03740905199876997 -0.34948189195159063 0.3591279820118044
0.07793482299328745 -0.5035878308038619 -0.23656010957825085 0.37499284679243355 -0.0803044633702081 -0.007805777795731669 0.6060663830993537 0.2467747646350188
0.3035325199282207 -0.28659200112637645 0.07371988622538464 0.28375650666700386 -0.11460642891586408 -0.0741806432890634 0.042389981169525984 -0.1991661980701464
0.0093089191890838 -0.3815859847239674 0.3331543118214912 0.19955596163299452 0.13024688129970655 0.26690736701814033 -0.4264946402447655 -0.28121291446357355
0.37179797180725443 -0.1967187917425301 -0.41109650344174364 0.35008952374935737 0.05658582310111333 -0.0855342958733333 -0.26953350369116763 -0.38129719182840094
-0.39774007664157746 0.0657872639313531 0.6872806654748466 -0.6583168324527116 0.24747273126824165 0.08340819276951862 0.4967875520976841 -0.06298211008652216
0.07912626458296701 -0.1612957782613719 0.12071791337943018 0.3761498148476123 0.39178095136449687 -0.22146108158636119 -0.35350788651193005 -0.22680696777017184
0.6346254219657202 0.5742190016675955 -1.1009822073630935 -0.16843695825181698 -0.17012303341615223 0.10391483004080111 -0.02463068323541205 0.5410770460262494
-0.8440125896548978 -0.39295122595797255 0.05087719778537035 -0.02976812095251236 0.10288774458512825 -0.3997668520029717 -0.15320828167459286 -0.0009115028934637876
-0.018081393436975332 0.15925688660006568 0.10822733299221865 0.2232232573357092 -0.2108742170082094 0.507845940028299 -0.4100137500273983 -0.26191927977196633
-0.05369251858221979 0.22370702647976712 -0.38811631839725846 -0.23976420853053876 0.3968457904118838 -0.15557020616963602 0.027791334968347382 0.1331673626106695
-0.46738707815719266 -0.1268413524235026 0.20918551002147318 -0.21983273861401972 0.1890642312359091 -0.2101539972224789 -0.44614015330777373 0.29697542887352174
0.14806407431664756 0.05424921075871823 -0.5378864176920256 -0.5836684929493525 0.7854470877311341 -0.1879145639214106 -0.02415833759552147 -0.04360592161685457
-0.19407919731737688 -0.4448209707844726 0.2584096615817725 0.29958766485909166 0.17800824918530353 -0.6048392830354189 -0.37062606962778905 -0.03564249136171772
0.2062894756860765 -0.04814606070454334 -0.44265933480935266 0.360450801615502 -0.12447949133581733 -0.01627239905175476 -0.27093050804688945 0.2106608384419505
0.0037255593866041027 -0.35592968310729795 0.39596979077329014 0.17460686541973625 0.6227300209560085 0.1954252851236839 0.20042207282691912 0.03866551383905934
0.4120117293768242 -0.528221259225122 -0.05447841170953257 -0.5045754081540319 0.05883385596375035 -0.45041002197200064 -0.2948280603989095 0.06783435330647296
0.08651922655493861 -0.162447071611458 -0.39703529108412505 0.210695352807925 -0.3268966278350857 0.2000366149390143 0.5452363191545014 -0.11371008586124345
-0.21846040058545468 -0.3627028827593042 0.44187320556658444 -0.10362293527578612 0.14041952065917337 0.2527260885653697 0.15838143884422237 0.2601616618432801
0.1993285141371283 0.18635047184424144 -0.2216672155790134 -0.5249149641078935 -0.1603333279434298 -0.11523755077601316 0.09432667502486447 -0.025260780389956945
-0.30836443765764954 0.19847820693794732 0.009434864449316991 0.13123886146024175 0.007432876316036214 -0.011454939581620971 0.6904072529464169 -0.24891119158221583
0.022750054613133678 0.44480885199411474 0.19712766706273221 2.2627339527970864 0.2560604363682381 -1.549422800021933 0.07626805733726982 0.2985823313343374
0.5156189116876201 -0.9248373244085868 0.2725230833382409 -0.47076703444228585 0.2393776489078418 -0.2508888626126691 0.100126267124245 0.0872541306612301
0.19923392421413133 -0.1605464702027764 -0.2301288043573337 0.26695535285293986 0.3840622906040826 -0.03211236983453331 -0.11544313718837049 -0.38257878184741173
-0.12814144751342016 0.36965832455659275 0.1011953376333292 0.23597315324099744 0.280092580910014 0.028215422239370826 0.02774079870661824 -0.307636245295474
0.24217330250276228 0.3579383527846508 0.34448228701951517 -0.15177621152320442 -0.14882794010954847 -0.05988689973004632 -0.198795876803948 -0.2927367384009612
0.42924460845204393 0.4023575478670317 0.13804582090280954 0.03227367097887394 -0.037339301900559355 -0.5493591384630885 0.3512236664733406 0.6192668821956346
-0.06536007712985653 0.21347754398292312 0.005228501986885887 0.6877566266950745 -0.32261694257427304 -0.4471806616489317 0.021441002622713787 0.1483377039057138
-0.046426286931716604 -0.36023067714223256 -0.3889241803057252 0.1187681745652708 -0.31810731430330064 0.15113879190790053 0.14594347975260147 0.07485956021585119
00000000: 195f 8356 7b39 babf 4428 7a96 752c d23f
00000010: bba1 8db2 30c7 d13f a4db 7072 4eda dabf
00000020: 58c8 7b11 8280 d83f 76b1 b340 ad42 c93f
00000030: 54c5 e225 191b c1bf b7a0 ad9c 66f2 dc3f
00000040: 0b74 2765 3db2 cebf 7a5b d0ba ffac d7bf
00000050: 5640 486f 66b4 cbbf aec9 6158 6e2a cdbf
00000060: b2e4 f925 13fd 4cbf 7553 b514 6d05 cb3f
00000070: efd5 04c9 9144 d43f 0b0b abb8 0c3c dcbf
00000080: fd69 ed14 3427 cb3f c3be e56a 36d4 c43f
00000090: a7fc 0ecb b075 d6bf 52e8 12fb 5c88 d63f
000000a0: 2248 4145 3c92 d5bf 3bb2 65b1 f827 cdbf
000000b0: de17 d0d1 a276 d4bf ea13 844d 1905 da3f
000000c0: bea6 4767 70fd bb3f b118 acb5 5969 d7bf
000000d0: 1241 afb5 3ec7 9f3f 112d c2b6 dfee cdbf
000000e0: 1a01 9839 d91c b4bf fe72 d17d 4727 a3bf
000000f0: 7e7b 1e4c e95d d6bf 626d 74ee f3fb d63f
00000100: afc8 f95b 89f3 b33f daea fe39 641d e0bf
00000110: 32a0 1607 9a47 cebf b546 4dff e1ff d73f
00000120: 0edb e553 d58e b4bf 09e2 a385 f3f8 7fbf
00000130: 43bc d353 e564 e33f c4f1 cac3 5096 cf3f
00000140: aa4e 97a9 136d d33f c782 08fa 8557 d2bf
00000150: 5a22 6774 4edf b23f 015e 0a0d 1129 d23f
00000160: 4be0 1ad0 d856 bdbf 9a3a ecac 80fd b2bf
00000170: f232 9abd 23b4 a53f 2e08 9729 477e c9bf
00000180: ee65 d3fb 8d10 833f dd16 409f e76b d8bf
00000190: 37dc 7276 6652 d53f d9bf 77bc 0c8b c93f
000001a0: 3d4b cb07 eeab c03f 64e1 19a3 0215 d13f
000001b0: bf50 f12c b04b dbbf 845e b573 64ff d1bf
000001c0: 0567 68b8 89cb d73f 867a 85d4 142e c9bf
000001d0: 3a10 72b5 674f dabf c13e cbe3 dd67 d63f
000001e0: 5ae6 4527 d1f8 ac3f da5c 765b 93e5 b5bf
000001f0: 3be9 e173 0940 d1bf 6c6a 3d56 2c67 d8bf
00000200: a3fb 5ecb 9274 d9bf 6517 1423 6fd7 b03f
00000210: 1367 ac05 34fe e53f 7a4d 3976 ee10 e5bf
00000220: 6075 b9bb 2fad cf3f 29de 2944 3d5a b53f
00000230: dc71 5404 5ecb df3f ccff 0d77 981f b0bf
00000240: d873 a36e 9e41 b43f 65c7 4e0e 57a5 c4bf
00000250: 198a 0182 5ee7 be3f 4faf 4aac d612 d83f
00000260: 1a9a 5369 f012 d93f da06 6033 d658 ccbf
00000270: af98 dc8a df9f d6bf d0f5 89be 0208 cdbf
00000280: ebb1 11f9 d94e e43f 53ee 1c87 0060 e23f
00000290: 56a3 e184 9f9d f1bf f68b 909d 578f c5bf
000002a0: cdca 6870 97c6 c5bf 453a 988c 299a ba3f
000002b0: 9c9c e52b c938 99bf a391 29cf 8050 e13f
000002c0: 9a5c bfb0 2602 ebbf 0368 1ae6 1c26 d9bf
000002d0: 1e59 3379 930c aa3f a151 d1c7 887b 9ebf
000002e0: e6fe 26ea d956 ba3f 2e2b d8b4 c795 d9bf
000002f0: d365 a237 549c c3bf 24b5 0e8f 3dde 4dbf
00000300: 5c63 e9c5 ed83 92bf 8916 ce97 8762 c43f
00000310: 2821 bc57 c9b4 bb3f c252 fb66 9492 cc3f
00000320: c857 cf24 edfd cabf 557e fa20 4640 e03f
00000330: abca d14f aa3d dabf 81ff 3315 49c3 d0bf
00000340: 8f75 b3f6 957d abbf 47d9 4e8d 6ea2 cc3f
00000350: 78d9 a3d3 e5d6 d8bf 22eb 31f5 97b0 cebf
00000360: b7f4 d7e2 eb65 d93f 2083 dd79 b9e9 c3bf
00000370: 7a76 34eb 5475 9c3f d758 a7cd a00b c13f
00000380: 5785 d07d abe9 ddbf c13c 3862 563c c0bf
00000390: 6e6e 2b3e 97c6 ca3f 77fa 77ab 7a23 ccbf
000003a0: cc34 00b9 4133 c83f 42dc 9880 53e6 cabf
000003b0: 87ea f86d 8f8d dcbf e78c ae3a a501 d33f
000003c0: 9b85 737a c3f3 c23f 5ec3 1574 8dc6 ab3f
000003d0: 2365 9e93 5d36 e1bf d689 1d8c 69ad e2bf
000003e0: b265 51ee 6122 e93f 1006 3e9d 950d c8bf
000003f0: 490e 9897 f6bc 98bf aa3d 83ee 8353 a6bf
00000400: bcf1 a74e 96d7 c8bf b408 8660 f277 dcbf
00000410: 7ab4 5dad c889 d03f 29b5 b6bd 712c d33f
00000420: fba4 556c f9c8 c63f 8d24 7fe9 d75a e3bf
00000430: f92a 0668 56b8 d7bf 813a 7e8d bb3f a2bf
00000440: e953 ca8b b167 ca3f 5582 50b8 99a6 a8bf
00000450: 419e 91d1 8754 dcbf 2e5b 303d a011 d73f
00000460: 7d5f 4f50 e3dd bfbf b0dc 0437 b6a9 90bf
00000470: 1a34 e3e9 ec56 d1bf a4fb d331 eff6 ca3f
00000480: c851 3177 1085 6e3f 77c6 274b 8dc7 d6bf
00000490: cbd0 64ad 9157 d93f 7442 518c 8459 c63f
000004a0: 5aca 4782 67ed e33f 1e77 351c b203 c93f
000004b0: 3b15 1834 6ea7 c93f 8df5 d75a f7cb a33f
000004c0: ac7a cf71 665e da3f 1390 2d45 30e7 e0bf
000004d0: 6bcc 4229 98e4 abbf bc65 8c53 7b25 e0bf
000004e0: 7015 869e 781f ae3f bc43 8a8e 84d3 dcbf
000004f0: bccf 5683 76de d2bf e321 ff98 975d b13f
00000500: 5157 87c0 1f26 b63f b47a f3cd 10cb c4bf
00000510: 281b a4b5 0669 d9bf 1257 ddb8 10f8 ca3f
00000520: 2f5c 6ed5 dfeb d4bf c232 95bf cc9a c93f
00000530: 2385 eb6f 9372 e13f 32d8 ffab 1a1c bdbf
00000540: b827 fea9 82f6 cbbf bc6e e726 8636 d7bf
00000550: 51c7 b88d a647 dc3f b601 205e 0887 babf
00000560: 27bf 7950 44f9 c13f 28fe 4e0b aa2c d03f
00000570: d78e 10ce d745 c43f b58d 5219 7da6 d03f
00000580: ed8a b0c4 9883 c93f cf24 150f 55da c73f
00000590: 61ed c060 975f ccbf 05c8 8077 1acc e0bf
000005a0: 70e9 fc6f cd85 c4bf 58a7 da47 3580 bdbf
000005b0: 5849 5f00 cb25 b83f 82d0 9546 f6dd 99bf
000005c0: 5c4c bf31 3ebc d3bf be33 e2df bb67 c93f
000005d0: 921d 0412 9652 833f 47cf f75c 6fcc c03f
000005e0: aed7 148b ef71 7e3f e0b5 0bf7 af75 87bf
000005f0: 166f 8af3 d017 e63f eb1c ba69 52dc cfbf
00000600: d1b7 2e52 ca4b 973f 454e 128c bf77 dc3f
00000610: 40ea 95b9 7a3b c93f 947f 3642 141a 0240
00000620: 8f11 0050 4b63 d03f d055 dc8f 6fca f8bf
00000630: 0037 feab 4d86 b33f 80a4 0f11 f91b d33f
00000640: d5b7 5c3b f37f e03f 8c8f ce71 4498 edbf
00000650: e1f0 95a8 0471 d13f c0ba 3d0e 0c21 debf
00000660: 2eed b942 eda3 ce3f 0088 f628 900e d0bf
00000670: c8e9 c402 e0a1 b93f 4782 a165 4956 b63f
00000680: 9c70 604a 7f80 c93f 422c 8167 c98c c4bf
00000690: cf89 4a54 dc74 cdbf 8db6 7fe7 cb15 d13f
000006a0: 565e 7100 7a94 d83f 7906 7954 0871 a0bf
000006b0: a68d c572 ae8d bdbf d766 0bb7 2b7c d8bf
000006c0: d886 2a5f f066 c0bf c48a aa63 7ba8 d73f
000006d0: 4f90 a409 f0e7 b93f e8b8 f347 5e34 ce3f
000006e0: 6e16 b76e 09ed d13f ea30 0bef 80e4 9c3f
000006f0: 76e1 d67c 1568 9c3f 4dee 26ef 4fb0 d3bf
00000700: d559 1be7 88ff ce3f 8a6d cc43 76e8 d63f
00000710: e334 336f ff0b d63f c8c6 6624 676d c3bf
00000720: 0833 c03f cb0c c3bf 5c48 99e7 7ea9 aebf
00000730: daee b9ae 2472 c9bf fd44 71df 32bc d2bf
00000740: 6e4b d260 be78 db3f 5acf 58df 39c0 d93f
00000750: da42 1047 7cab c13f d593 c0b2 2c86 a03f
00000760: 3268 0911 231e a3bf 7ca5 ae9d 5994 e1bf
00000770: b063 45d4 727a d63f 1ad6 d0c7 08d1 e33f
00000780: 0c9d bc21 70bb b0bf aa24 eb6e 3b53 cb3f
00000790: 2ee5 a650 7b6a 753f 6e67 682f 1a02 e63f
000007a0: 237d 5f88 c1a5 d4bf 33e4 4ba3 9b9e dcbf
000007b0: e965 3b54 a1f4 953f 7df6 84d9 bafc c23f
000007c0: 54c6 17b0 2fc5 a7bf 70e0 55f8 040e d7bf
000007d0: 3e59 c23e 22e4 d8bf ba3e 9051 9767 be3f
000007e0: b844 e3c7 de5b d4bf 7e60 3314 8458 c33f
000007f0: cc09 4da4 46ae c23f aa86 eb02 ff29 b33f

bias f8 [64]
-0.3370787710151057 0.0567096926909854 0.30321711257133255 -0.3433753158351816 0.2986820453098031 0.5714041880871022 0.24952631798122485 0.3593098209784304
0.06290010410803462 0.08550295368093898 0.13822676433118017 0.4922143028145025 0.48486108366141323 -0.6249241291935803 0.432334289808778 0.017370123389918963
0.21426664399582912 0.10435972796162638 0.04274659440874003 -0.34726759160758003 0.5322862413426036 -0.29047214036442776 -0.11529343024312008 -0.3074349629766232
-0.09515189044293144 -0.09266075664036186 -0.25902354114931464 0.4020219783687475 0.22201813390226996 0.32675905836469543 -0.09681465281437042 -0.4752059183051641
0.10545165648752183 -0.26888100225094275 -0.2059917067362582 -0.03631467172051637 0.1364085911797437 0.3336678874686587 -0.41336191280737244 -0.20563710921487496
0.05572598249110407 -0.4317208136400751 -0.4246309678275067 -0.3164070393224777 -0.2880214908275857 0.3490498350763385 -0.12320746939498134 0.4611573081774099
-0.3832390305001748 0.43417413816885153 -0.04937558369638051 0.009501613778944816 -0.06743528330277747 0.12794800721057584 0.2117768613869397 -0.07651873305404341
0.3250141534057087 -0.4140795256608252 0.050623792215267076 0.3604724022100446 -0.21675820468423573 -0.13477381277865697 -0.24409701547935636 0.10062174755406347
00000000: 5be3 6bd6 b292 d5bf 26af f286 0d09 ad3f
00000010: 0c36 85bf e867 d33f 7902 f175 dcf9 d5bf
00000020: fb82 204c 9b1d d33f 8d35 946f f148 e23f
00000030: 813e 9c77 7af0 cf3f 6bf9 8e9e eefe d63f
00000040: e21a 0fa2 381a b03f 9962 c585 85e3 b53f
00000050: 23fe 1d24 6ab1 c13f f88c 4d6b 7080 df3f
00000060: ee72 5bc8 f607 df3f 40c4 2be3 60ff e3bf
00000070: f3c1 ea70 5dab db3f a57a 8c3f 79c9 913f
00000080: 36fa 4ae2 166d cb3f 2e59 9db2 51b7 ba3f
00000090: ea77 00b2 e1e2 a53f 4c93 3ad9 a139 d6bf
000000a0: ffab d527 7d08 e13f edea d075 1897 d2bf
000000b0: de7d 56c8 de83 bdbf 9a6b e8b1 03ad d3bf
000000c0: 05df 9ad1 df5b b8bf 9e99 6487 9db8 b7bf
000000d0: bf58 8879 d793 d0bf c37c 5764 baba d93f
000000e0: 5f56 1d18 176b cc3f a247 56d3 9ee9 d43f
000000f0: 297f 9c57 d8c8 b8bf fe1f 7f15 c669 debf
00000100: 4e45 ec37 e1fe ba3f 7dbe cba9 5835 d1bf
00000110: 47f8 d6ad ef5d cabf ed26 cf2e d697 a2bf
00000120: e055 0133 d675 c13f a0cf 198e d05a d53f
00000130: d8db 3a86 8574 dabf c7ff 7519 5152 cabf
00000140: e26b acb0 1d88 ac3f 668b e555 50a1 dbbf
00000150: b107 ec5d 272d dbbf 824f 874f 0340 d4bf
00000160: c793 e9b0 f16e d2bf adee 941e d556 d63f
00000170: 3ca3 ac53 868a bfbf 51bc 3bf1 9983 dd3f
00000180: c622 a3ff fc86 d8bf a811 0d53 82c9 db3f
00000190: 80cb 64aa c147 a9bf 1fb1 8403 9575 833f
000001a0: c7c5 6150 7043 b1bf d765 47ad 9960 c03f
000001b0: 576c da12 811b cb3f c69b ff4f bb96 b3bf
000001c0: 5c56 e729 08cd d43f 1003 2a69 4780 dabf
000001d0: c79a ed97 5ceb a93f a292 a6d6 fa11 d73f
000001e0: 6e15 219c bbbe cbbf 64eb 1eaf 4440 c1bf
000001f0: 3c7c 442d 923e cfbf 86d5 02cb 58c2 b93f

weight f8 [64, 64]
0.10015738488688289 -0.09606609388247785 -0.08182585665910737 0.02663147030477681 0.12047773533317942 -0.09826142771607849 -0.04788214806703217 -0.08953320044168177
0.02431024074866052 -0.031109083317417664 -0.054706989047903505 -0.06764246155277513 -0.21179678095425628 -0.2020971248805403 0.14349935692636054 0.15833386011091932
0.025542659652564127 0.08184810863291081 0.1224068722689534 -0.02083343267478804 0.12666216064740018 -0.08591587254064854 0.06619513901962858 0.10847119362854073
0.022423008603559343 0.049048615510397485 0.11765339160098516 0.06257331034905475 0.033534275580205136 -0.0832048211018618 0.010320846665529473 -0.11068825879363624
0.2978000148309867 0.12126602255180031 0.0024479027599189776 0.023611615437080024 -0.09746993998208692 -0.0670070699405096 -0.1238634665239873 -0.025402768206619557
0.09961024166555164 0.01924586945385608 -0.03264997204535702 0.066442525788956 0.04543298274054583 -0.02631257043430668 -0.04958055013586876 -0.18397300549892212
0.18938935898403017 0.04763105443408814 -0.0017065498740145403 -0.061807685593616414 0.05351719516861697 0.06234197770696479 0.029880088989730495 0.07779874584404473
0.15318311696199338 0.06476982505341956 0.1226643370294808 -0.04232670938565665 -0.04151979219243363 -0.08254407414726378 -0.1393728329295762 -0.20296493714846991
0.06765292409112567 -0.14924169147795113 0.09012420121305525 0.03891327652656908 0.12828235414418648 -0.12926593771673275 -0.13783127035803447 -0.11648123864861139
0.14645456085319639 0.10602467602193809 0.09957510516633472 0.053862010462233774 0.06719645433372966 -0.14193042053998953 0.1734955882193062 0.10535996005405905
0.07313104459795909 0.0797750046856506 0.025592277355234484 -0.0993802704258031 0.08980746144032611 -0.07443479742310671 0.05005117183450034 0.01721848289917769
0.0258857981053356 0.14548603137888308 -0.005975921004974537 0.06088283860687177 -0.03821470269752024 -0.001997943275346607 0.035786051862798866 -0.12305056662863105
0.06915164128543871 -0.007121905816914679 -0.04759568771946856 -0.0017848377175334242 -0.037414251518057245 -0.0051120977765116826 -0.008034433315781762 -0.07751670884799293
-0.06604436491333322 0.08853552175106232 0.028584768936673412 0.008229846473092434 -0.04721326392345986 0.04056300524844917 0.030261152514450697 -0.13240488692295868
0.08797777993014154 -0.08815552152992077 0.009121843729438252 -0.028769231875578668 0.05879296348271826 0.11006923344220025 0.15949157280076903 0.12012093680297227
0.03109071465193771 -0.08197453420575572 -0.004876606553767193 0.08746237247942215 -0.06734619126120442 0.07622171337195788 -0.0827778688448075 -0.004432731374736537
0.14982485556854136 0.03265020454010938 -0.013504863453509737 -0.013646858156249586 -0.015299546252299075 -0.07827543930076018 0.025716626270558568 0.04156421873383598
0.05159863079498815 -0.022126150469501345 -0.09742635867626194 -0.11524988158830277 -0.17031292485268099 -0.03379132571404571 0.022948853256105656 0.021105017599300942
0.042507430044189394 -0.009283315263258384 0.09476439822280126 -0.09262440389007068 0.18167500959996766 -0.02538498908668483 0.09378869198128646 0.044819512195925976
0.13593420529028694 0.1754011049181475 0.03954792491049122 0.051140490691529955 0.1382789451892063 0.11838005867603187 0.031532492676632363 -0.05082142120277737
0.07765386992219242 0.049355698344083467 0.08529440832552841 0.035533604789159394 0.03857387489495912 -0.07884018312784513 0.07694125876598078 -0.10761937596937658
0.037544223110856735 0.16835472725059059 0.041025762447294126 -0.07924988186124395 -0.03730592610590528 -0.012177111125846594 -0.06728127288362927 -0.08378439158278303
0.04256107297597592 0.04052270316794963 -0.1021850442393334 -0.08106854412376395 -0.0921351309651041 0.08357580980350876 0.19843074351475393 -0.041870002690048376
0.053182165173075585 -0.09529590342046201 -0.0310590101609088 0.07008740677607221 -0.009376394794353421 0.11928675535705194 -0.1408529449441066 0.0011901563686469762
-0.0033083376821710798 -0.06314592397500046 -0.1625396682829656 -0.0887031394482698 -0.08258289990287597 0.11524326717187128 0.05887028380206658 0.021483468358845022
-0.12739300498122366 -0.056655243936284516 0.021792256835073007 0.10959438726030958 0.044489629125504096 0.010305078788435073 -0.1008426339860772 -0.12851375016179142
0.14280125839530453 -0.0904655084875965 -0.10928223476860019 0.03637916367356808 -0.12257526176180226 -0.030645536123890118 0.11094955355531948 0.0003835500111482686
-0.0065302543728443215 0.035906189779831635 0.09472432175142954 -0.04013308804562275 -0.061127374605640286 -0.03134712179192043 0.08812888812582184 0.11611687597347392
-0.2390612822466862 -0.11049929823033891 0.011587773914923879 0.05220966747892502 0.11155008107942256 0.13109661672186565 0.03499836109326111 -0.07187768996183466
0.0626241933855032 0.02987517756240314 0.116380415073368 0.0931216444731221 -0.08896654203908085 0.16665092342455023 0.14365888014123335 0.07576605096529468
-0.1484851423395705 -0.11387367342378762 0.15295317874795256 -0.0011355517695400095 -0.004805362802478973 0.0928549959547093 -0.16115039126410882 -0.1261968636318058
-0.02112436243863329 0.08462951179732908 0.08481903161232827 0.10871540031236361 0.05473056976215283 0.048925824373249924 -0.023206923726818277 0.013911260716537617
00000000: 92c3 8a14 eaa3 b93f 25ce 7a9b c997 b8bf
00000010: b96b 5112 8af2 b4bf 517e 03b8 4745 9b3f
00000020: 41f3 26fd a0d7 be3f 00b3 7f32 a927 b9bf
00000030: 2030 0548 0284 a8bf dfa0 cdd7 a5eb b6bf
00000040: a4be e4a3 c8e4 983f facf d33d 0fdb 9fbf
00000050: 8191 a5f1 8d02 acbf d3aa 3030 0451 b1bf
00000060: 995d cc2b 281c cbbf 4f20 fd8e 51de c9bf
00000070: b974 7fda 2f5e c23f a44e 83af 4844 c43f
00000080: cd46 71df da27 9a3f d05b d165 fff3 b43f
00000090: e767 3389 0e56 bf3f efab 0100 5c55 95bf
000000a0: 2b86 cf36 7736 c03f bdf6 c426 95fe b5bf
000000b0: 9754 3e25 2af2 b03f 8f52 31a5 c4c4 bb3f
000000c0: d256 85a2 0ef6 963f 1bfe 0f6f e61c a93f
000000d0: fd90 305d 881e be3f d638 8df1 cd04 b03f
000000e0: ecf5 d291 672b a13f d984 8041 e94c b5bf
000000f0: 48f1 2997 1823 853f d3e1 91d3 1056 bcbf
00000100: 40a2 1ccb 270f d33f e1d9 f940 4a0b bf3f
00000110: a244 86c9 9f0d 643f 4394 6eb0 a42d 983f
00000120: f4ee 903c caf3 b8bf 3dca fe15 6027 b1bf
00000130: 72c4 e321 84b5 bfbf bb81 b3ea 2e03 9abf
00000140: f7d9 4c8a 0e80 b93f ddb1 8c6f 30b5 933f
00000150: e0dc 4c44 7fb7 a0bf 8dc3 539b 6002 b13f
00000160: 8c8d 0fee fd42 a73f e0c7 f4b5 aef1 9abf
00000170: 58d6 b332 9f62 a9bf 3f7b fb6c 6d8c c7bf
00000180: fbfd 8517 e93d c83f e505 23fa 1863 a83f
00000190: 34f4 76f9 c9f5 5bbf 7535 88c8 41a5 afbf
000001a0: 30b4 0b16 9b66 ab3f 4db8 d6a6 49eb af3f
000001b0: e1c2 0cd4 e298 9e3f bcea 115d 9eea b33f
000001c0: 6457 d31e 819b c33f 8940 5f58 c194 b03f
000001d0: 2b59 ed13 ee66 bf3f d20c 1eb1 d8ab a5bf
000001e0: 11d9 340b 1542 a5bf bceb f0c2 9b21 b5bf
000001f0: 4e13 b10f f8d6 c1bf aac8 a44b c1fa c9bf
00000200: 603d 73b8 b351 b13f 9a7b 0c0c 5a1a c3bf
00000210: 34c7 c930 6112 b73f b2a6 1fe4 70ec a33f
00000220: 8201 da61 8e6b c03f 3b75 7d47 c98b c0bf
00000230: f1e5 467f 74a4 c1bf 41e6 97e6 b6d1 bdbf
00000240: 6775 9be6 05bf c23f df4d 15e4 6e24 bb3f
00000250: 3067 2f0c c17d b93f b93c dd2a cd93 ab3f
00000260: 3741 c56d c933 b13f 956d 43a9 c62a c2bf
00000270: 637b b37a 1a35 c63f eb73 bdce def8 ba3f
00000280: 7bdc de54 b7b8 b23f fac1 297c 226c b43f
00000290: 1a65 15a9 dc34 9a3f 9fb1 5843 fc70 b9bf
000002a0: eeae d22d 9ffd b63f 5cdb 9dac 280e b3bf
000002b0: 0db2 4fa4 4ea0 a93f 7a3b c1d3 b8a1 913f
000002c0: 5350 2c81 ce81 9a3f 7108 6649 499f c23f
000002d0: d83e 7a14 357a 78bf b887 6811 092c af3f
000002e0: 4eda 9fa4 e090 a3bf bc2c dca0 fd5d 60bf
000002f0: 47af cea4 8c52 a23f f39a 6cef 3d80 bfbf
00000300: 8022 c905 ecb3 b13f b7f8 1909 dc2b 7dbf
00000310: 231a 5f44 765e a8bf 58c1 07e8 263e 5dbf
00000320: 9447 59f5 f527 a3bf 8ea3 394c 6cf0 74bf
00000330: ec57 aa62 5b74 80bf 834b 6591 22d8 b3bf
00000340: 894a 6393 48e8 b0bf 0b82 7492 43aa b63f
00000350: 87a6 fc5e 5345 9d3f bdcf 9f4b cfda 803f
00000360: d733 fa40 562c a8bf e56a f099 acc4 a43f
00000370: 7a2a 8e91 c7fc 9e3f 6b14 95b1 a4f2 c0bf
00000380: cf1b 9337 b685 b63f 2fce ee39 5c91 b6bf
00000390: 012f fa23 79ae 823f df87 2578 ae75 9dbf
000003a0: 2451 c97e 1c1a ae3f 1317 ee4d 7f2d bc3f
000003b0: 2e5d 9548 386a c43f cd36 22e7 3ec0 be3f
000003c0: 46af 8e8a 3ed6 9f3f f7bf 8477 48fc b4bf
000003d0: 734a 9f1a 7ef9 73bf 1200 6e1d ef63 b63f
000003e0: e61e fa98 993d b1bf 247a 2d26 4483 b33f
000003f0: ee61 852f ee30 b5bf f948 9544 0e28 72bf
00000400: 4abc 65fb 752d c33f e33a 6a11 87b7 a03f
00000410: f149 f516 70a8 8bbf d33f cb4b e2f2 8bbf
00000420: e4cb 6056 5e55 8fbf d775 e0f3 db09 b4bf
00000430: 7898 2e93 7555 9a3f 308e 4ac0 e747 a53f
00000440: 0ed2 90bf 226b aa3f 728d 9cd2 3ca8 96bf
00000450: d96c 4810 eff0 b8bf 6225 4a28 0481 bdbf
00000460: 0b08 2a5d d0cc c5bf 6a1e a9bd 184d a1bf
00000470: 68da dc78 e77f 973f df64 7bc1 8d9c 953f
00000480: 19ec c0ab 88c3 a53f a61a a27b 2103 83bf
00000490: 512a 31c7 7a42 b83f 0af4 84a1 3bb6 b7bf
000004a0: 8dbd 5d70 2041 c73f 7a1b bfc7 85fe 99bf
000004b0: 7f53 cb24 8902 b83f 7456 3546 95f2 a63f
000004c0: 8694 10c3 4a66 c13f 7321 a71c 8b73 c63f
000004d0: 94fe 3a28 a03f a43f d403 0b1e 162f aa3f
000004e0: f610 a8dd 1fb3 c13f 291a 83d0 274e be3f
000004f0: 0d70 9de1 0625 a03f 661c 01ec 4305 aabf
00000500: 6c41 b9bf 1fe1 b33f 1da6 846c 2645 a93f
00000510: 4b31 4ab6 dad5 b53f 97f4 f4ec 7531 a23f
00000520: c1c4 4e76 f4bf a33f 100e 25c8 de2e b4bf
00000530: ffea 1c1e 6cb2 b33f 9b53 3484 f18c bbbf
00000540: 2568 d414 ff38 a33f 6a8a d5cf a58c c53f
00000550: 0a5a 0228 5401 a53f e14f ce62 b849 b4bf
00000560: 49ca 2429 c319 a3bf ecb5 5c30 50f0 88bf
00000570: d71e ab72 5839 b1bf 5668 c3d5 e472 b5bf
00000580: b46a 07a1 90ca a53f e526 b449 64bf a43f
00000590: b9f3 258f cc28 babf 3ff3 be79 e8c0 b4bf
000005a0: ebcb 4efe 2a96 b7bf d8c0 d769 3965 b53f
000005b0: c25a f5b8 2d66 c93f f170 7928 fc6f a5bf
000005c0: 6c33 4c58 b13a ab3f 7837 a2f4 4f65 b8bf
000005d0: 5587 8ce3 eecd 9fbf 33f5 f68f 3ff1 b13f
000005e0: 5d14 f867 ee33 83bf eabf 1aa9 9389 be3f
000005f0: dc44 0a24 7807 c2bf 94bc 8cab e07f 533f
00000600: e402 c544 161a 6bbf 1c2c 59ce 542a b0bf
00000610: bffc c98f 19ce c4bf d09b fbba 3fb5 b6bf
00000620: 73ac 4a26 2724 b5bf 605e 962f 9580 bd3f
00000630: cdb0 45ef 3e24 ae3f 1208 0628 c3ff 953f
00000640: 3517 11fb 694e c0bf 70dc b487 ea01 adbf
00000650: 3c93 a699 b550 963f 41b2 1bb5 600e bc3f
00000660: fadd 353c 58c7 a63f e641 0843 d41a 853f
00000670: 4940 03a7 d2d0 b9bf a7fe 0379 2373 c0bf
00000680: 5b57 51c7 4f47 c23f e1c7 5e60 bf28 b7bf
00000690: 2e6c 5da8 ebf9 bbbf 70b5 772c 4aa0 a23f
000006a0: dbc9 90a4 1761 bfbf 2796 ae1d 8b61 9fbf
000006b0: 3ba1 06a0 3067 bc3f ac54 17c1 e622 393f
000006c0: 3d70 74cf 77bf 7abf 021d a8cd 4b62 a23f
000006d0: 51e4 0e68 da3f b83f be70 49f9 528c a4bf
000006e0: 4aa4 a455 164c afbf cd0d d7dd ba0c a0bf
000006f0: b64f 5564 9d8f b63f b4db d1e8 d5b9 bd3f
00000700: c8a2 7e62 8f99 cebf 7a58 2198 ae49 bcbf
00000710: 5efc fbaf 54bb 873f 07cb b6bc 39bb aa3f
00000720: 412e 1ace 8b8e bc3f 77e4 b720 c6c7 c03f
00000730: 9a49 9e20 4eeb a13f 2ab7 b287 9366 b2bf
00000740: 2174 879e 2308 b03f 8cf0 5e3a 9997 9e3f
00000750: bc90 a25c 1bcb bd3f 08d2 8ff1 d1d6 b73f
00000760: e1fd 7ee4 82c6 b6bf 4c73 fa44 d154 c53f
00000770: 4a48 fe07 6a63 c23f b202 0b67 6765 b33f
00000780: 862a 25a7 8f01 c3bf 7805 3b37 d326 bdbf
00000790: 6056 4542 f893 c33f 2d41 a36d d99a 52bf
000007a0: 5820 50c1 c9ae 73bf db4b e552 58c5 b73f
000007b0: 11c5 1b76 93a0 c4bf 2f04 1405 3827 c0bf
000007c0: 0c87 4af7 9fa1 95bf 642b 7299 47aa b53f
000007d0: 7f74 da36 b3b6 b53f 31c4 e9c0 c5d4 bb3f
000007e0: cd95 702e a505 ac3f 56d4 393f ce0c a93f
000007f0: 9430 ca49 8ec3 97bf 51da 96ce 817d 8c3f

bias f8 [64]
0.03355097715997204 -0.025817928718647198 -0.08934742212098741 0.08653680425404509 0.22182601582363398 0.06877551371413711 0.099145922814942 0.10265253122072726
-0.13552395279526583 0.04596711102139138 0.08246506810295677 -0.020589008562415936 0.014538801839279398 -0.1120177549417721 -0.003857814010314097 0.13038867343370322
-0.05600143785684697 0.11826696984575406 -0.02176134346546167 -0.10144074299099123 0.03083969145712168 0.06354220956112278 0.04638796961935453 -0.012770589640242821
-0.0512229588621173 0.03693896332420114 0.03470845817106286 0.03230063865537979 -0.10447683792943986 -0.11270422792203443 -0.10279525223479517 0.09347815206413342
0.014870101469612564 -0.12009200382087501 -0.059589020382853825 -0.07592221234511295 0.09857341668057372 -0.014786152602182415 -0.12101612841244143 -0.037681208227305314
-0.12785138681326924 -0.0928243746254005 -0.04120857527805682 0.1846238018751101 -0.04864777554084122 0.32155952035727076 0.04422083616491058 -0.08187480625466889
-0.02024336658504851 -0.0048922066695626125 0.08218260344411156 -0.06790338600201132 0.12969438203575467 -0.06424766473622655 0.05389943783068287 -0.024547118355212328
-0.0117348983428138 0.09618912393787533 -0.0403844618423487 0.0478282365681934 0.01984710899133412 0.02054433645872973 -0.18647345656346917 0.052169112826219236
00000000: c345 4dfb 972d a13f 63fa fcdd 0370 9abf
00000010: 15d6 fdff 78df b6bf f0e5 2ba8 4627 b63f
00000020: 7ea7 ae7d cb64 cc3f 25f6 2aa6 459b b13f
00000030: 4c9c 0590 a061 b93f 18d4 71b0 6f47 ba3f
00000040: bf47 8a50 d958 c1bf 8e94 0e4d 0089 a73f
00000050: 6b8a 9042 6e1c b53f 1706 bbf9 4815 95bf
00000060: 17c0 61f3 84c6 8d3f 46d7 0b12 32ad bcbf
00000070: 7e66 4420 6c9a 6fbf 7952 1578 93b0 c03f
00000080: 808e 3f70 38ac acbf 7b3d af7f be46 be3f
00000090: a435 010a 9b48 96bf e6d4 a041 05f8 b9bf
000000a0: 9184 e8a8 7094 9f3f a808 fb5f 4d44 b03f
000000b0: decc e2f8 29c0 a73f 8b05 d886 7727 8abf
000000c0: b7fa 3b4a e539 aabf 96e6 d9ee a9e9 a23f
000000d0: 6585 7a99 4ec5 a13f af5c 5495 b589 a03f
000000e0: 11b0 187a febe babf 1bcb 0b2d 2fda bcbf
000000f0: fb52 8826 ca50 babf 1d87 0126 2fee b73f
00000100: 4e62 003c 3774 8e3f cef8 eb7c 59be bebf
00000110: 2c75 7dbb 7382 aebf 26ee 0f5b a36f b3bf
00000120: 47e6 e580 1b3c b93f 025c e1ce 3348 8ebf
00000130: b5e9 d1b9 e9fa bebf 4924 058a f34a a3bf
00000140: 043d 8e2a 6f5d c0bf d0a9 4995 56c3 b7bf
00000150: b79c 4456 4a19 a5bf b1f2 8eb3 c0a1 c73f
00000160: 022f f179 5ce8 a8bf 20b9 e961 6e94 d43f
00000170: e197 420a 1da4 a63f 66ea 3a4f bff5 b4bf
00000180: 345f c655 adba 94bf a3ad 6aba d909 74bf
00000190: 61b4 174a eb09 b53f d292 2ac6 1d62 b1bf
000001a0: 7cc4 a854 d399 c03f 67ef e2f2 8872 b0bf
000001b0: d3d9 8205 b598 ab3f 6dcc 2f3a e122 99bf
000001c0: 718b d564 7708 88bf dd47 8bb5 d99f b83f
000001d0: f446 c2ad 45ad a4bf f77f c54f f17c a83f
000001e0: 7ed6 26f0 cc52 943f 5443 d514 9309 953f
000001f0: 018f c1ba 5cde c7bf 4a5f e6f2 e8b5 aa3f

weight f8 [1, 64]
0.5452851673608604 0.291821351987036 0.2960237795659637 -0.4302593774690802 -0.5173267028235133 -0.5383610753393316 -0.1024739766287485 -0.15925859795875172
0.3287281746673966 0.5749625719831546 -0.346775256213096 -0.03850333549197674 -0.5398356362692142 0.27608697656378123 -0.3803664563175524 -0.259994397258047
-0.14318185228592678 0.16468906884835322 0.40148229427288623 -0.42711538319310677 0.3827104281289254 0.19787249173994784 0.7314022973273596 -0.6064696372324945
0.014197729993871668 0.06339488916232917 -0.37770366239161585 0.23418123944131664 0.32529245150681474 -0.5101869367933829 -0.22820920687071594 -0.05027447001566292
0.4776564298865608 0.09566512523246884 -1.0107822394195307 0.5623749892540875 -0.4708733684358167 -0.12084326496904706 -0.23180752523059742 -0.5592253590975015
-0.21108101488037556 -0.10277406344430673 0.12396896595753164 1.7905138150507094 -0.14587596738564443 0.6430982445069264 -0.11466651007986128 0.4416567339468849
0.9517937486682371 -0.29249510640127757 0.5196534712256281 -0.29922471918534643 0.09012110639367824 -0.15645001740191644 -0.1751177129746169 -0.8197022329712259
0.6167504559407017 -0.1934412742779958 -0.11475878401053966 0.04059913430871998 0.28922302051693843 -0.09043544865014773 -0.2580941945265762 -0.760475333915059
00000000: 8be1 19e1 f972 e13f c7c3 c376 33ad d23f
00000010: 80be 04b9 0df2 d23f adba c1a0 5e89 dbbf
00000020: 1c2f bfba f08d e0bf c3b2 8001 413a e1bf
00000030: 4bc1 4f0a bc3b babf af79 ebf2 9562 c4bf
00000040: 7b18 dee5 e109 d53f 2aef 62e8 1766 e23f
00000050: 3ed3 1fd8 9031 d6bf 742d 738d b5b6 a3bf
00000060: 67bb 5f62 5546 e1bf 7059 ccb5 68ab d13f
00000070: 7446 988c ec57 d8bf 7575 578a bfa3 d0bf
00000080: ea70 796e c853 c2bf ec2e 5b0a 8814 c53f
00000090: 59ce f4ca e2b1 d93f a9b4 9bc2 db55 dbbf
000000a0: 9eb8 29e1 537e d83f a58a 66c4 e253 c93f
000000b0: 5bb0 67ca a567 e73f 0cc7 3d03 3368 e3bf
000000c0: ae49 0210 b313 8d3f 398d afbf a53a b03f
000000d0: 634a 63fb 4b2c d8bf 945c 5e9e a6f9 cd3f
000000e0: 38e0 366e 97d1 d43f ccf7 0b8e 7353 e0bf
000000f0: 06f2 1394 f535 cdbf 96fe 1449 93bd a9bf
00000100: b38f 4546 ec91 de3f 28bf 3d78 827d b83f
00000110: d2f3 5aff 292c f0bf b6e8 5dd5 f9fe e13f
00000120: e94e 7f0d ca22 debf 27e2 fb8e 95ef bebf
00000130: 9b82 ea75 deab cdbf 2f5d 8d94 2ce5 e1bf
00000140: acdd dbe3 b304 cbbf b8cd 5ea9 664f babf
00000150: 53ac 811e 6ebc bf3f 24dd 6ad0 f1a5 fc3f
00000160: 57cb 984e 10ac c2bf 5cb6 08c5 4294 e43f
00000170: 284d bdce c85a bdbf f50a 179b 1a44 dc3f
00000180: 8027 e229 1875 ee3f 1df2 0e65 3db8 d2bf
00000190: a757 0551 00a1 e03f fe92 c36f 7f26 d3bf
000001a0: 22e3 a344 2d12 b73f 1495 19de 8d06 c4bf
000001b0: d190 16d9 416a c6bf 113a 622d 003b eabf
000001c0: 6fde c173 6bbc e33f 3e3b 5c05 afc2 c8bf
000001d0: da05 41e8 d460 bdbf 8127 34e4 68c9 a43f
000001e0: b5b7 9745 a182 d23f 0ffa 590e c726 b7bf
000001f0: e4dc 3183 9d84 d0bf 328e 125e d055 e8bf

bias f8 [1]
0.11040548153115508
00000000: a3b6 799c 8843 bc3f

weight f8 [64, 6]
4.2447272994084466e-05 -5.002707895934742e-06 -2.596695694604687e-06 -2.3032527574659316e-05 6.172382062204428e-05 -3.96944109189975e-05 -2.9696625162950624e-05 2.3835245110750393e-05
-2.070030370279639e-05 2.56114727649471e-05 -3.235979142125929e-05 4.6470451789288354e-05 2.6710636116990784e-05 -1.7178828588394478e-05 1.3551516948696719e-06 -7.434229767189072e-07
1.852921558228531e-05 -3.124481148043463e-05 1.9245293645931867e-05 -1.0971318097796619e-05 -2.1000372860690347e-05 -5.4386524982280615e-06 2.1523726549740666e-05 -2.4216800688783545e-05
-1.0313250951748898e-05 -3.1899298871393613e-06 2.7617672245557317e-07 -2.2852681222139475e-06 -3.5369643297170314e-05 5.9176955978282366e-05 -7.761316750850611e-06 4.894076247572383e-06
-4.381542905789508e-06 -1.3632050279535182e-05 -2.7060542497746373e-05 3.928807361486798e-05 3.735403031682128e-06 -2.1515758705000918e-05 -1.799451368993734e-05 1.220666430911749e-06
4.6189711143195635e-05 -4.645053885699003e-05 2.2004131013124115e-05 -1.22156913642437e-05 3.497742054700438e-05 -1.4881390190291703e-05 -3.107366609015847e-05 2.6337966296560585e-05
-2.137647951549205e-05 6.660987152897946e-06 2.3493506910313706e-05 1.3044506073284149e-05 -8.448208452502096e-05 9.66862546700265e-05 1.7199130078520864e-05 8.661177152425558e-07
-1.0857276307643415e-05 -9.886660774994415e-06 5.791450425523025e-05 -6.161451866658009e-05 -1.9729501394289223e-05 3.5897382122074424e-06 -6.019059193569119e-06 -7.323201061999073e-06
2.622966910238661e-06 7.47013104147081e-06 4.7602436840080886e-06 -1.2940328578503114e-05 3.9628698126032014e-05 -4.401730166971323e-06 -6.716152586398382e-05 7.089945675076847e-05
3.6639395685219425e-05 8.511689345773237e-06 -5.337304139474669e-05 -7.194630491417997e-06 0.00011209364655462012 -0.00012020727843960042 -8.327600112876596e-07 -1.2576000926255024e-05
-2.902437913255899e-05 2.2063398448114284e-05 3.467847237874207e-05 -4.327674070557363e-05 -1.0669902670000803e-05 -3.04115437721e-06 3.817180588996227e-05 -1.2582691752360604e-06
-9.084740107812746e-05 7.75259033358839e-05 -1.9098354349101232e-05 3.311640619560428e-05 1.6070980838664924e-06 1.3547678442381587e-05 -2.035379801477853e-05 3.654381647970899e-05
-1.828535464993238e-05 2.5636721575113357e-05 -1.0830720565658266e-05 -1.6445615674310164e-05 6.010724400308893e-06 1.956558017895071e-06 1.6936803591810247e-05 -2.1179095795936564e-05
1.223207435529668e-05 -2.65128406115222e-05 -2.2254783198767303e-06 1.5502280950652637e-05 -1.7172369297316388e-05 -2.406562929263868e-05 1.5265799917336417e-05 3.964791138535071e-06
-4.044888200485509e-05 5.279257408061322e-05 -1.731248941689588e-05 3.825586363755903e-05 -3.24969435624381e-05 2.066357872741671e-05 2.00880656489146e-05 -1.401119938576532e-05
3.978607338741091e-06 -1.4121515385023422e-05 -2.4788290472119225e-05 1.1257079045095463e-05 2.5960355254860955e-05 -3.537321431489903e-05 2.086925596496495e-05 9.92604182298609e-06
-4.429997211507595e-05 1.417140446106233e-05 0.0001180002135257998 -0.0001217791829561619 -3.6286341886757326e-05 1.7541775909726427e-05 1.3716373470892e-06 2.5816678623994826e-05
-5.05817301391589e-05 5.173318904717072e-05 -1.189332293092731e-05 2.2398080633629302e-05 2.484319250806138e-07 7.33168244527284e-06 -3.579327481361157e-05 1.7285819878132174e-05
3.3039717880595652e-06 -2.1375880608937483e-05 5.836382266056705e-06 -2.9986559113421077e-06 -4.504667877061473e-06 -1.8480626871526777e-05 -1.69890467022394e-05 -3.661725283359951e-06
-2.4267614757051746e-05 -9.438061416404838e-06 2.3521840413220986e-05 -2.1974426821454624e-05 -1.8860688789477544e-05 -1.5174800938379997e-06 -5.471561525801136e-07 -7.0998880850026574e-06
-3.840220569559321e-06 7.621795976686218e-06 -2.965322536717336e-05 9.841461046369403e-06 1.7969643659942095e-05 2.148830257090791e-06 -7.777344765130893e-05 9.136502229712037e-05
8.16474064892064e-06 7.3559857382837705e-06 -2.924141736571467e-06 -1.736190711943596e-05 -2.3863515570120008e-05 2.1387222429606984e-05 -8.616260694517902e-06 8.416502432228894e-06
5.299646811620976e-06 -1.2372719133485562e-05 -5.311017995743398e-05 5.2102353195553374e-05 -2.457142468945478e-05 -9.355993287417228e-06 1.5703170028115555e-05 3.919389100808983e-06
-6.333655978010014e-05 3.5400639411394905e-05 -1.1859100951687201e-05 -1.281466677042792e-06 1.4270028623708686e-05 2.1269243656136174e-05 -6.527801071108204e-05 4.5297068362183465e-05
2.831749709433088e-05 -4.525923703156012e-06 -1.504860546595753e-05 -2.869346283579863e-05 2.851398240609112e-05 -1.2191228257270994e-05 1.5845358053490453e-05 -4.1819508352573036e-05
2.9290666074446123e-05 -1.8071407615765716e-05 -1.7892819456790738e-05 2.5842686586140268e-05 2.9315425054831237e-05 -3.612653033714959e-05 4.296680474156705e-05 -3.1630858241512486e-05
-2.8212434664464168e-05 4.758025515826759e-06 -5.2671486671218164e-06 -1.5404615732659348e-05 2.0338363383799302e-05 5.2688634527742e-06 -7.19076170399278e-05 7.490657582272613e-05
2.6616533835252916e-06 -1.983339867075011e-06 -8.926118393514192e-06 -3.2604605500970376e-05 1.391399328181932e-05 -3.9794535286146695e-06 -7.498291057000042e-06 2.3513412592240745e-05
-2.760963140686276e-05 1.0096346514971135e-05 4.4034853517256016e-05 -4.14464861522086e-05 -2.330230246471446e-05 1.2513616510346934e-05 2.2567237922107315e-05 -3.378685992919324e-06
-3.0139280353843992e-05 3.637308943438052e-05 -2.330821356326674e-05 -1.3698456442330104e-05 4.633287810001972e-05 5.170562815455851e-06 -0.00012469512999078346 0.00010648825091447431
5.072448988306078e-06 1.665267243630109e-05 -1.408506753423052e-05 8.27974756239313e-06 2.8117856555429414e-06 1.7830076010872727e-05 -9.416448658172382e-07 -3.4279754192808676e-06
-3.839388156991137e-06 -6.30201435744315e-06 -3.523062630623606e-05 1.4923009910603131e-05 9.770932047534124e-06 -2.8061213419817654e-05 1.8365241221221808e-05 -3.654824324094607e-05
00000000: b986 cb31 2d41 063f 8ce6 1fe0 9dfb d4be
00000010: 0fee 148e 5cc8 c5be e9a2 2a3e bf26 f8be
00000020: 9b54 f029 372e 103f 87be e792 b1cf 04bf
00000030: 9606 c28a a023 ffbe 560f 6792 39fe f83e
00000040: b35e ea09 b2b4 f5be 18a0 c001 07db fa3e
00000050: 0049 85f7 41f7 00bf 23fd b890 285d 083f
00000060: 014f efef 1402 fc3e e15a 8d1c 6803 f2be
00000070: 93ba c00b 55bc b63e 08c2 1d6a f4f1 a8be
00000080: 04d9 c7ff e56d f33e fd45 3e8c 9b61 00bf
00000090: 5c74 4c82 1e2e f43e 0400 427a 2e02 e7be
000000a0: e90b 5ea2 3e05 f6be 89ab 516a b5cf d6be
000000b0: 5909 d539 bb91 f63e 741c 1edf a564 f9be
000000c0: ac8c ee6a e2a0 e5be 7f78 5880 52c2 cabe
000000d0: 7db7 1512 ae88 923e bf27 bd6f 932b c3be
000000e0: 8aae 9ab0 3b8b 02bf 3a5b 8eb9 9806 0f3f
000000f0: 0612 7640 d346 e0be 228f 736f f986 d43e
00000100: 2f49 d757 a560 d2be c86b 5eb9 a696 ecbe
00000110: 464b 1552 0260 fcbe 1403 2eee 2799 043f
00000120: 7e7f ac88 b755 cf3e 866f 06ae 978f f6be
00000130: 10b7 9c90 5dde f2be 7f5d 36ef b87a b43e
00000140: 616c e263 7a37 083f e1bf b75c 7c5a 08bf
00000150: 3d51 875e b012 f73e 6d29 48d6 3f9e e9be
00000160: 5eef ce04 9756 023f 5e81 a7b1 6235 efbe
00000170: 2256 7809 a34a 00bf 0ee3 1e43 0b9e fb3e
00000180: 8a76 9c7c 346a f6be e9d7 ee34 2ef0 db3e
00000190: 3cea 6680 7da2 f83e d4bf 6543 375b eb3e
000001a0: 7f97 1829 7f25 16bf eff1 0535 8158 193f
000001b0: 27b9 2438 db08 f23e f202 74ff e40f ad3e
000001c0: 09b9 7ab1 f4c4 e6be 1d68 6c4f dcbb e4be
000001d0: da99 c336 275d 0e3f 0bdb da5e e126 10bf
000001e0: d186 1703 19b0 f4be 2ed7 d673 e71c ce3e
000001f0: 891d 9564 ea3e d9be b9e9 172e 3ab7 debe
00000200: a372 fc4e c700 c63e 5b1b 3bfc fd54 df3e
00000210: 62f7 05d2 45f7 d33e 9565 a837 4923 ebbe
00000220: afc9 10b3 dfc6 043f b407 0f60 5276 d2be
00000230: f9aa 813a 229b 11bf 04e2 6664 fb95 123f
00000240: 6684 b90c a835 033f e6d5 0bad add9 e13e
00000250: 7181 fcbc 9bfb 0bbf bedf 80f8 2c2d debe
00000260: 2f7f 252f 7a62 1d3f 94f3 8c51 f982 1fbf
00000270: dec5 90a1 5af1 abbe 1696 fa67 b05f eabe
00000280: 7c0d 8625 2c6f febe 4b74 4532 9922 f73e
00000290: 2557 e93c 772e 023f 2ab7 f17c 81b0 06bf
000002a0: e163 b141 5c60 e6be 37d5 bf4c d482 c9be
000002b0: e70b 6f43 5503 043f 3499 cb96 391c b5be
000002c0: 1ac2 5a77 aad0 17bf 10c3 afe0 ac52 143f
000002d0: 8300 daea ac06 f4be cc2f 750d cf5c 013f
000002e0: 3262 ba07 6ff6 ba3e a6b0 41bf 5a69 ec3e
000002f0: 51ee 6259 ae57 f5be 4a5b 24f9 d328 033f
00000300: d8c5 e300 702c f3be 82ae 8417 cee1 fa3e
00000310: 194e 5fe6 b2b6 e6be 9fb3 8e1a 963e f1be
00000320: ded4 a557 f735 d93e 6791 4225 ad69 c03e
00000330: 85ec c847 70c2 f13e bb9f 7e61 3835 f6be
00000340: f4f6 887f 0ba7 e93e b195 9a88 fccc fbbe
00000350: 95f1 20a5 2dab c2be 80c0 98a2 5c41 f03e
00000360: 6f76 803b ac01 f2be 99c3 ca73 113c f9be
00000370: 953a 43c8 e101 f03e fe6e 587d 29a1 d03e
00000380: 2c4f c200 f534 05bf 83b0 7e08 b3ad 0b3f
00000390: b6c9 b636 4927 f2be 766c 3377 9d0e 043f
000003a0: f63c 837a aa09 01bf 4fef 5051 d6aa f53e
000003b0: bd0b 2b5c 5910 f53e 2a7e 9994 3462 edbe
000003c0: e3d4 0042 ffaf d03e e2cb c34b 6e9d edbe
000003d0: 4463 b559 0efe f9be 578b c129 999b e73e
000003e0: 8f32 6c07 ae38 fb3e ecbc 9b63 b68b 02bf
000003f0: ce50 8b59 0ce2 f53e 3a87 decc 00d1 e43e
00000400: 5dfd 9a73 d739 07bf 5450 94ff 36b8 ed3e
00000410: 951b 683b dcee 1e3f abb6 b96e 76ec 1fbf
00000420: 5beb ab36 4506 03bf ef75 5aa9 d564 f23e
00000430: 64d0 5336 2303 b73e 8af7 66a5 1c12 fb3e
00000440: 4a3c 8703 f784 0abf 43c3 31d7 821f 0b3f
00000450: a9d7 5fdb 2df1 e8be 606d 8b61 707c f73e
00000460: 4614 4e29 07ac 903e 471e 6286 55c0 de3e
00000470: b579 d48e 17c4 02bf 17f3 397f 2020 f23e
00000480: ab61 0cb3 39b7 cb3e 8720 8954 0b6a f6be
00000490: 436b 9a8a c47a d83e 1276 6785 9027 c9be
000004a0: 613f 72ad d9e4 d2be 612e 2402 db60 f3be
000004b0: d795 4d66 76d0 f1be 4d62 6dc3 7eb7 cebe
000004c0: 6c07 a9c9 4972 f9be 970a ac48 05cb e3be
000004d0: e10c a890 18aa f83e 85c8 dc1c b70a f7be
000004e0: f13d 1caa e0c6 f3be 566a 1202 8775 b9be
000004f0: dcf1 9b1a 095c a2be f5f5 5760 72c7 ddbe
00000500: fb59 d8ca 671b d0be f3fd 4153 d7f7 df3e
00000510: 6fef 7921 fa17 ffbe c66b 5a1b 98a3 e43e
00000520: 54e5 6a82 b0d7 f23e a9ee 48ed 9306 c23e
00000530: 3c70 19a8 4963 14bf 8900 8d21 67f3 173f
00000540: 891c 0069 691f e13e 8882 97f6 6dda de3e
00000550: 3c9d 99eb 8b87 c8be 6f88 212c 8d34 f2be
00000560: ae57 954d d005 f9be ca77 f4bb 166d f63e
00000570: d550 4ada d111 e2be 0c19 4349 93a6 e13e
00000580: bd0b b8d2 733a d63e 3240 be91 8df2 e9be
00000590: 99f0 54e3 53d8 0bbf 614f 6239 0f51 0b3f
000005a0: 0864 8372 d7c3 f9be 43c9 15ed f59e e3be
000005b0: 2128 9fa0 4977 f03e 7bb1 f778 6970 d03e
000005c0: a425 c4cf 719a 10bf eeea 4eb5 648f 023f
000005d0: 66ef 856c cede e8be 657b 1383 db7f b5be
000005e0: fc99 d0cc 29ed ed3e 273a 6c4b 6b4d f63e
000005f0: a57a 42af bb1c 11bf e273 f26a abbf 073f
00000600: fa17 3295 6bb1 fd3e b029 3c6f acfb d2be
00000610: 27dd 2196 288f efbe 9a45 77c0 5716 febe
00000620: bdeb 5af3 29e6 fd3e c444 39a7 1d91 e9be
00000630: 6f40 d1b6 749d f03e 8ebb 9c5d ebec 05bf
00000640: 274f f23e a7b6 fe3e 3e6c dcac 01f3 f2be
00000650: d835 be30 11c3 f2be 0598 4fe6 1719 fb3e
00000660: 4a25 89ab 4cbd fe3e b449 6a21 d2f0 02bf
00000670: 0cb6 5f2b e886 063f 3bf1 7603 6c95 00bf
00000680: 6518 62bf 3795 fdbe 0663 5018 e4f4 d33e
00000690: 2238 1acd 8e17 d6be ec63 e921 2527 f0be
000006a0: b29a 7cb0 8953 f53e d451 6a28 6619 d63e
000006b0: a087 3e74 a3d9 12bf 12b5 742c e5a2 133f
000006c0: 13df 116c db53 c63e ed76 729f 30a3 c0be
000006d0: 78ca dd5e 2cb8 e2be b95d f0b6 1d18 01bf
000006e0: 6279 deac 042e ed3e ce6d 52db e7b0 d0be
000006f0: 37e2 288d 3a73 dfbe c89f dc68 d5a7 f83e
00000700: acc8 536c 67f3 fcbe 3c41 854c 6f2c e53e
00000710: 75d0 c10b 4216 073f 9873 a36b daba 05bf
00000720: 6ff6 3808 2a6f f8be 8a1c 7a5b 323e ea3e
00000730: a9c8 08c8 d8a9 f73e 02b5 9544 ac57 ccbe
00000740: 66c9 3a93 739a ffbe b37e 2bd6 e911 033f
00000750: 3533 5e3d c070 f8be 2975 8284 4dba ecbe
00000760: 2f20 c191 b14a 083f 4cee 037c d9af d53e
00000770: 0e2d b402 1358 20bf cb70 6838 4eea 1b3f
00000780: 4a5d 3629 8046 d53e 39d9 a2ef 2a76 f13e
00000790: 354c 05f1 dc89 edbe 526e 09d7 275d e13e
000007a0: 2464 f482 4396 c73e d58d 5e7e 39b2 f23e
000007b0: 54ea 59f5 aa98 afbe ae44 a76a 85c1 ccbe
000007c0: b99f 04fb 821a d0be 3c75 1f84 bc6e dabe
000007d0: 9f65 381a 9378 02bf e746 61dd ba4b ef3e
000007e0: 9bac d0ac ba7d e43e 040e 1de7 9f6c fdbe
000007f0: bc76 50c4 e141 f33e 497c 5813 6c29 03bf

bias f8 [64]
-5.0953481256629164e-05 1.89542976437443e-05 -1.3233033654541797e-05 -4.479501455002506e-06 1.9808848270328804e-05 8.573952671246738e-06 -1.9335580398903025e-05 4.3305155250598155e-06
6.26781442603217e-05 -2.7754128829394925e-05 -3.1542886850188253e-06 4.849585882033142e-05 -8.44119148292876e-05 -2.672034783158994e-05 3.619366572925398e-05 1.1718437156259792e-05
-7.358726244536746e-06 1.1050684712947029e-05 5.1321479239379685e-05 -7.857126253260511e-06 -9.143010257288774e-06 -6.706832406649318e-05 3.0090657405391146e-05 1.5229616706610864e-05
-2.6438020282604362e-05 -6.3336118395447964e-06 -7.429128751351483e-06 3.4769667160041444e-05 2.729193969905829e-06 4.372608019624236e-05 2.6603310664750346e-05 3.6503540742046896e-05
-1.3982898559881494e-05 2.7573140402443956e-06 2.8008427821140016e-06 4.3792097722694517e-05 -7.71964292855304e-06 -8.597554461684759e-06 2.937557685308484e-05 7.088447372051374e-05
9.020811435483349e-06 1.0838845452601017e-05 2.5457713018972915e-05 2.4592060822691292e-05 2.703867650641249e-05 2.8182633719889382e-05 3.845662730516518e-05 -7.688668890515564e-06
-2.2557391042452655e-05 5.090930975197655e-06 2.9178474114516375e-05 -1.0698006930060312e-05 1.4054038592911239e-05 2.5972550066898953e-05 -5.9345972845638196e-05 -6.291870693516745e-05
-7.050930459679753e-06 -2.3356758915331485e-05 4.599318579147596e-05 3.105541665126866e-05 -3.642286822665343e-05 -6.836066523073281e-06 1.2295007864314389e-05 3.730159453775936e-05
00000000: d64a f048 dcb6 0abf b16f 7d6a 01e0 f33e
00000010: be26 f74b 6ec0 ebbe 3338 eefb d3c9 d2be
00000020: 39e4 18b0 65c5 f43e 5ea3 0e15 1bfb e13e
00000030: ef7d a7f7 5a46 f4be 17ed 230b db29 d23e
00000040: c7c3 af51 426e 103f 440e de35 311a fdbe
00000050: 0ec2 138b c875 cabe de20 6005 016d 093f
00000060: d2b3 82a7 c920 16bf fa8e 3952 b004 fcbe
00000070: 63b8 91e2 d4f9 023f a497 34bd 4993 e83e
00000080: ca44 9344 5fdd debe 8bd5 c68a ca2c e73e
00000090: 5849 6d99 40e8 0a3f 22c6 a435 437a e0be
000000a0: 6b8a e7c2 9d2c e3be 3b8e aa08 e194 11bf
000000b0: b940 463b 668d ff3e bec6 f994 56f0 ef3e
000000c0: 8f26 75eb e6b8 fbbe e8ee 41f7 a990 dabe
000000d0: 8d18 915c f728 dfbe 21e1 b0aa b43a 023f
000000e0: 191e 8f40 e6e4 c63e b315 e7ac d0ec 063f
000000f0: 5997 9c96 45e5 fb3e 06cb 011c 6c23 033f
00000100: f9ae cff1 0253 edbe 3981 a16c 4921 c73e
00000110: d1d0 6e9a c37e c73e 85d9 3405 adf5 063f
00000120: f4ed 30a5 7330 e0be cee1 3be3 c607 e2be
00000130: a458 2945 72cd fe3e cd83 56fc f994 123f
00000140: 3ad8 16e2 02eb e23e b1eb 6a93 0fbb e63e
00000150: 92f3 b1b7 c0b1 fa3e 5758 358d 61c9 f93e
00000160: e5de 7eb3 235a fc3e 8736 9fd7 378d fd3e
00000170: e6bb 18a7 8f29 043f 1f9a 1c9b d21f e0be
00000180: 873d e51b 34a7 f7be ef79 6b73 585a d53e
00000190: 2860 1d79 8998 fe3e 39a7 6fe0 726f e6be
000001a0: d72b 345b 3479 ed3e ce25 d30c f43b fb3e
000001b0: 23c7 a419 481d 0fbf a1f6 8427 677e 10bf
000001c0: e950 bb01 e192 ddbe 5dab 3b40 c87d f8be
000001d0: 5c09 9cd4 191d 083f 993e b5fd 2f48 003f
000001e0: 19a9 0e39 9818 03bf 94f8 57a8 2bac dcbe
000001f0: b97c 8803 d5c8 e93e 084a 6e07 898e 033f
