pytorch-trpo/save_model/Qube-100-v0_episode199.pt (torch, 81047 bytes, 13 tensors)

action_log_std f8 [1, 1]
000000 d9 d2 37 4f 13 82 c2 3f
       0.14459458702153574

weight f8 [64, 6]
000000 5a ce 18 e8 3a 28 bd bf 91 2a a2 96 83 b4 d0 3f
       -0.11389511267116728 0.26101770124720597
000010 f4 a5 2f 46 a2 51 d2 3f a9 e6 df ed 85 5b da bf
       0.286232536831988 -0.41183613042776784
000020 fd 76 fe 88 58 e4 d8 3f 77 05 42 0e 4a 90 c9 3f
       0.3889371240455686 0.1997158593767769
000030 a9 4c 99 a8 9a dd c0 bf de 88 9b 4d 6b 8b d8 3f
       -0.13176282150616217 0.3835094697843838
000040 5f c6 bf b7 c7 e2 cc bf 26 e0 0d 06 ef f5 d0 bf
       -0.22567078086972267 -0.2650106009600698
000050 ba fa aa a6 c0 e4 d1 bf 3a 85 6c ff b7 d0 bf bf
       -0.2795869472137543 -0.12427854524550677
000060 bf 38 3a bc db 77 b8 3f ac 49 7d 6e 9e 2d cc 3f
       0.09557889314075661 0.22014217753401277
000070 e6 fc 14 c2 3b 47 d3 3f 26 32 a1 41 ab 5c da bf
       0.30122274354284995 -0.41190606507442096
000080 91 12 b6 0f 12 e4 bc 3f 64 84 b5 31 9f f5 c3 3f
       0.11285508044790961 0.15593328406524443
000090 3e 5d 96 d8 7e 08 d1 bf ac 10 11 cb 7a be cb 3f
       -0.2661435237036648 0.2167504779373578
0000a0 85 c2 af 07 96 95 dc bf b6 d0 b5 e3 70 11 bb bf
       -0.44663000822678384 -0.10573487815219348
0000b0 c1 e8 a9 9e f2 39 d4 bf 03 21 6b ff 7e 8b cc 3f
       -0.3160368489694854 0.2230070826683531
0000c0 62 7f 36 42 a2 ff d1 3f 03 eb 12 05 9f 6a c8 bf
       0.28122765031911545 -0.19075381992100668
0000d0 e8 9a c5 b5 87 93 ca 3f ae 26 00 01 6d e7 d1 bf
       0.20762726188259895 -0.2797501096507443
0000e0 48 b9 6d 28 58 c9 d3 bf 97 ff 6f 82 51 f1 b6 3f
       -0.3091640848932866 0.08961972651013493
0000f0 c1 a2 95 b2 e5 40 e1 bf 27 b6 02 63 6a 79 d4 3f
       -0.5391720283488085 0.31991061848643415
000100 50 b1 76 1d 0d 6b b9 3f e3 d0 a2 43 78 37 dc bf
       0.09928972215010856 -0.4408856068141757
000110 49 93 15 6f ef 56 c6 bf 58 6f 77 4e 66 70 d9 3f
       -0.17452805446660083 0.39748532927273095
000120 f9 a7 a4 66 92 c8 bd bf 74 5f ff 56 b0 3d 99 3f
       -0.11634173398911675 0.024649386701497147
000130 e5 fb 90 26 08 7b e3 3f 67 03 fc fd cf fa bf 3f
       0.6087685349701785 0.1249208445624511
000140 66 96 1a 1f b0 01 ca 3f bf 3d 06 d9 66 e8 d1 bf
       0.2031765128969482 -0.2798096770647724
000150 76 c2 29 fc 10 f5 bc 3f 3e 2b 8f 7c ef 6e d1 3f
       0.11311441570593125 0.27239596523275
000160 dc f6 bc c6 c9 64 a9 bf fb 7c 86 84 65 d9 b6 bf
       -0.04959707785608966 -0.08925470815164609
000170 96 2f a1 7a 7a 04 b5 3f 5f a2 f8 17 ae d7 d0 bf
       0.08209958547484883 -0.26316406575145906
000180 61 b9 da 0d c6 58 c2 3f 3e 5b f0 37 55 be c0 bf
       0.14333415676578468 -0.1308084986819384
000190 56 b9 99 b4 83 4a dc 3f 3e a8 8c d8 e3 98 ad bf
       0.4420480025936703 -0.05780708330560501
0001a0 e2 37 f6 10 2f 1d 72 bf ec 1c 30 e5 61 bb cf 3f
       -0.004422363140646342 0.2479059571344132
0001b0 43 a4 fd 82 46 b7 da bf f4 9f 12 8d fa 73 d6 bf
       -0.41743624488896475 -0.3508287789977651
0001c0 44 5f 86 aa e4 04 d9 3f 34 d8 4e 66 1a b3 ca bf
       0.3909236588747158 -0.20859079356677201
0001d0 c5 7d 5f 14 eb 3b d9 bf d3 52 8d 01 b9 2b d5 3f
       -0.39428212155868564 0.3307936206013384
0001e0 d3 01 ea 9f 66 d0 b5 3f 21 1c f3 64 e7 d9 ad bf
       0.08521119503166767 -0.058303099701838564
0001f0 bf 25 78 0d a7 40 cd bf a2 e4 03 df ba 4b d7 bf
       -0.22853553922349865 -0.36399719027356003
000200 51 d2 88 24 73 f5 da bf 33 1a 1a 89 da ce 97 3f
       -0.42123106544321326 0.02325002157024354
000210 18 6a 3b 02 1a 13 e6 3f 13 65 46 59 b0 63 a6 3f
       0.6898317378612004 0.043729315660309485
000220 e4 1c b4 68 b3 24 df 3f a0 19 10 cc b3 20 a4 bf
       0.4866150400634537 -0.03931199899675453
000230 81 30 22 99 af 51 e1 3f 8c fa bc 1b 94 92 a2 bf
       0.5412214270486545 -0.03627455557442713
000240 a3 f7 0b 45 7d 24 84 3f 7e 4f c1 00 d7 28 af bf
       0.009835222882880695 -0.0608584583684708
000250 11 bd ee 95 a2 f2 bc 3f cb 3c cd df 6e db d2 3f
       0.11307731781447596 0.2946431336940349
000260 4c d2 48 bf 18 aa d2 3f 3f 20 ab a1 35 1a b5 bf
       0.29163187675593316 -0.08243117520316988
000270 f4 4f 4d 9d b0 15 c3 3f 18 b0 65 64 90 f8 d0 bf
       0.14909942322503833 -0.2651711445275864
000280 73 3c b5 35 7b 33 ed 3f d6 8b 7f 89 bb c2 d8 3f
       0.9125343369468183 0.3868855326419952
000290 7a 00 f2 3b 44 85 e8 bf c9 34 6f ba ed 08 d3 bf
       -0.7662678881461169 -0.2974199600838117
0002a0 bf f0 6d 39 89 19 d8 3f b9 91 26 ad 75 37 b4 3f
       0.37655859573693456 0.07897124745665608
0002b0 c2 c8 5e 8d 4a 89 a0 3f 54 80 35 92 8d cc e3 3f
       0.032297448880301186 0.6187198501247715
0002c0 80 d9 12 d0 7b b3 e2 bf 44 56 33 fc 11 b6 d9 bf
       -0.584409624475299 -0.40173768643339636
0002d0 75 8e 31 68 89 b0 cd 3f f5 4e c2 5f 00 0f 90 bf
       0.23194997394158504 -0.015682226032892783
0002e0 a1 7e ab c2 3f 81 b8 3f 7f 2b 2a 5c 5f 72 dc bf
       0.09572218420680169 -0.44448074341260474
0002f0 8f 30 8e 23 e1 e6 c4 bf f0 8b b5 1f bf 9b 90 3f
       -0.1632958816156855 0.016219126043676313
000300 72 f5 c0 be ec bb a8 bf b4 4b 11 41 a9 fb ca 3f
       -0.04830875233208588 0.21080508877875348
000310 4f 39 6d 82 1a fa bf 3f 20 c6 e7 e3 c9 18 cb 3f
       0.12491002735371136 0.21169398906890624
000320 b7 05 36 8f 01 16 c9 bf cf ac 3e 2c 22 a1 dc 3f
       -0.19598407261586967 0.4473348075941432
000330 b2 3d 59 40 5e c8 dd bf 58 0c 6a 61 fc 51 d0 bf
       -0.4653545025257372 -0.2550040198622745
000340 e4 c4 4f cb c3 0c be bf 0a ae 6a 90 58 2c a3 3f
       -0.11738227571165144 0.037447707776063835
000350 ad f6 0b e4 70 f8 d7 bf c0 9e 18 61 79 e9 c0 bf
       -0.37453863401592963 -0.13212506524108925
000360 7b 59 01 61 6e fd d8 3f 1b 8a 47 73 49 03 ba bf
       0.3904682109181505 -0.1016126543468449
000370 a9 b9 02 45 1d ea 9c 3f f5 71 8f e6 fb 24 c2 3f
       0.02823682531077912 0.14175366170719852
000380 98 3e 47 0c d0 68 d8 bf 74 22 38 2d 19 38 c7 bf
       -0.38139725874951 -0.1813994856641049
000390 37 b7 07 71 f4 0b ca 3f ab 6b 5d ca ae 21 d1 bf
       0.2034898330597856 -0.2676808334560358
0003a0 58 72 f9 5c 3e 50 cf 3f 2c 77 f6 06 b8 ea cb bf
       0.2446363405205314 -0.21810055103281323
0003b0 35 1d 7f 94 6a ce d8 bf 32 40 04 c7 9f 19 d1 3f
       -0.3875986528550642 0.2671889728089837
0003c0 3a 8d df b1 a6 e8 c1 bf c1 df e1 5e 58 ea a9 3f
       -0.1399124496957514 0.05061603697043849
0003d0 c4 41 e9 77 a9 ae e7 bf e9 ab ef 09 54 ce d4 bf
       -0.7400710432066764 -0.32509327860196763
0003e0 39 e8 f4 a5 cd 3f e2 3f a6 8e fe e5 77 96 a1 bf
       0.5702884904233151 -0.034351107430919556
0003f0 84 e1 25 87 96 14 c1 bf cd bc ce a1 6d 27 97 bf
       -0.1334407958891114 -0.022611344338369577
000400 a8 a7 c3 28 e2 02 c7 bf e5 59 9b 3f a2 ab dd bf
       -0.17977549543803417 -0.46360069476705085
000410 2c 2c 89 4f 41 ff c7 3f c8 b8 34 c3 b6 11 d4 3f
       0.1874772680624529 0.31358117163734933
000420 ea 57 1e 9d 23 98 d0 3f fc d8 53 72 5a fc e3 bf
       0.25928583472830147 -0.6245548470458568
000430 4d ae 29 42 98 e2 d3 bf 63 f4 28 5d cb b6 ad bf
       -0.31070524655544746 -0.058035235521381144
000440 d0 08 be 58 6e 99 d5 3f 41 9e b3 a0 4a b8 aa bf
       0.33748968759767894 -0.05218728267373907
000450 54 9c de 0d 94 aa dd bf 96 a1 25 b3 99 db ba 3f
       -0.46353627542925335 0.10491333602624872
000460 64 99 cc 98 52 8d c4 bf 83 87 f2 0e 2d ea b6 3f
       -0.16056282483004758 0.08951074232984806
000470 8e 1c 28 7c ba 08 cf bf 29 af 96 e1 d5 28 c5 3f
       -0.24245387136781854 0.16530869975155696
000480 ff d0 36 ac e9 3a a1 bf ab 58 ab 9e 2a 5d d1 bf
       -0.033652593872291796 -0.2713114308838935
000490 d4 31 b1 6f e1 71 db 3f 45 89 77 89 a5 7d ba 3f
       0.428825720857984 0.10347971540571617
0004a0 58 af 23 2d 56 74 e9 3f 14 a7 57 bc b8 d4 ac 3f
       0.7954512483242793 0.05631043719388465
0004b0 0a 28 32 14 36 af 7f bf 34 11 8e 89 0a dc c1 3f
       -0.007735453839936577 0.1395276233344106
0004c0 a2 0c 37 41 a6 ae cd 3f b3 2c 3c 2a bd 69 df bf
       0.23189237770393328 -0.49082879185216227
0004d0 97 2a d1 89 0a 70 b9 bf 27 b6 81 c8 6f 45 de bf
       -0.09936586250948164 -0.472988076979933
0004e0 69 81 db 21 95 b2 b0 3f ec 28 ca 7c da f7 da bf
       0.06522495342824687 -0.42137777506344665
0004f0 94 fc a3 67 fd 7f d3 bf 0d 96 96 1a 71 6a a8 3f
       -0.3046868812670678 0.04768708657801932
000500 fc ae fe 55 9d 18 b1 3f 4c a0 01 af fe 4a bd bf
       0.06678183888896777 -0.11442558071723957
000510 cb d3 bf 42 33 8a d9 bf 09 73 8d a4 9f 29 d0 3f
       -0.3990600730751878 0.25254050321181915
000520 e8 6e 62 9b f3 ec d6 bf c8 06 c4 e6 d8 09 ce 3f
       -0.35821237730281874 0.23467551486833416
000530 1e 9e c5 0c 23 3c e0 3f f7 46 04 87 72 70 bb bf
       0.5073409318401365 -0.10718456074053138
000540 ca d2 fa 1b aa d0 9a 3f a2 01 b9 41 52 47 cd bf
       0.026186616857290436 -0.22873905381312648
000550 ea 26 f8 61 f7 9a e2 3f fc df 61 a0 02 26 d1 bf
       0.5814167893851991 -0.2679449621423371
000560 8e 99 fe de c8 90 ad 3f 9f 1c 34 d4 a5 11 d2 3f
       0.05774524423695758 0.2823271343517692
000570 24 c8 8b a8 25 6c c3 3f 7d ae f5 62 72 f1 d2 3f
       0.15173788766657126 0.2959867445376643
000580 72 88 1c df 79 5e c2 3f 5b a8 90 e9 9a 4a c7 3f
       0.14350818056215392 0.18196426777405147
000590 ab 2e 54 73 f1 0a d2 bf ed 78 c0 14 c7 51 dd bf
       -0.28191791784841297 -0.4581163122801531
0005a0 7b 79 db c0 87 83 c7 bf 1e 9b 3e 12 52 62 c1 bf
       -0.18370148579465337 -0.13581300631377585
0005b0 0f 75 46 24 ae 3f bb 3f 62 fc 0c 43 a2 e7 78 3f
       0.1064404333651121 0.006080278239834676
0005c0 fb a2 2c 43 d6 3c d5 bf 7d 9e 8e 26 ef 7a cc 3f
       -0.3318381935119274 0.22250165350600418
0005d0 f3 11 e5 74 54 56 93 bf dc 92 1b b4 c8 10 a2 3f
       -0.018884009966557213 0.03528430174427452
0005e0 59 e4 54 79 85 69 d1 bf 15 10 58 dd 3e 82 b6 bf
       -0.27206551407613727 -0.08792488960176599
0005f0 46 b9 03 a1 42 8c ea 3f 38 ed 7a 31 79 e7 d8 bf
       0.8296216149154041 -0.38912801582383194
000600 a6 a4 37 c7 52 ba b9 bf d4 0c c6 08 d6 b4 de 3f
       -0.10049931873040183 0.47978735787201043
000610 9b 90 8b 31 1e 65 b7 3f 6d 5d 64 0b 42 e5 fe 3f
       0.0913866873702908 1.9309711880685783
000620 fe 91 75 86 b7 53 b8 3f 22 2b 59 b6 c1 d5 f1 bf
       0.0950274184484172 -1.114686691568473
000630 5b da 63 ce ae 36 bc bf bd 93 12 7e ae bd ca 3f
       -0.11020939387149424 0.2089136233891206
000640 bc cb b7 04 d9 3b d7 3f ca f6 74 04 d5 72 ec bf
       0.3630278154443507 -0.8890175902413031
000650 82 b1 3d df b6 bd de 3f 4b 9a 55 b9 fa 7b dd bf
       0.48032924462201987 -0.46069210146962253
000660 76 95 af 78 74 87 cd 3f 50 01 60 22 36 45 d1 bf
       0.2306962575232025 -0.26984933239875364
000670 d0 e8 22 7d 9b c3 b1 3f b6 e1 d9 0a 11 47 b4 3f
       0.06939098172270808 0.07920938982886735
000680 58 85 bd 0b a6 4b ca 3f bb 68 d2 65 c8 b9 c2 bf
       0.20543361256845105 -0.1462946412255571
000690 97 db 37 5d 13 5f d0 bf db 6a 08 bf 03 37 d0 3f
       -0.25580295661296176 0.2533578267627214
0006a0 d9 75 73 0f 50 9b d8 3f 76 3d 4e 69 13 4c 8b bf
       0.384479537094959 -0.013328696871922157
0006b0 e8 3d c1 4e af 87 b9 bf 46 06 fa 5c b4 93 d9 bf
       -0.09972663567281581 -0.399640169904249
0006c0 8e a5 da 0c 7b 31 c7 bf 8b 96 41 40 e6 62 d5 3f
       -0.18119753005639122 0.3341613414289461
0006d0 99 68 a5 19 05 1e 96 3f e1 bc 7b af 30 f1 d1 3f
       0.0215988919165758 0.28034608017965296
0006e0 98 33 86 00 6e fc d0 3f 50 b7 89 90 9e 22 50 3f
       0.2654070859069235 0.0009848164064822536
0006f0 93 f4 3f 93 e6 21 98 bf 2f 2e 3f 83 b7 88 d3 bf
       -0.02356682084790813 -0.30521953408308183
000700 85 b4 dc 76 8d 25 cf 3f d8 a7 b8 06 93 df d2 3f
       0.2433335142499439 0.2948958936345867
000710 ea a5 3f 3b ee 62 d4 3f 25 74 99 a2 e9 05 77 bf
       0.3185382441139085 -0.005620873105354672
000720 e9 8a 34 a0 38 76 cb bf c6 e2 e6 17 98 72 9b bf
       -0.21454532454034528 -0.026804329356056276
000730 5e 90 3e 5b bb 18 c5 bf 7a 90 19 db 7d 28 d5 bf
       -0.16481725650112627 -0.33059641262503414
000740 78 f8 0e 28 b6 05 d6 3f 2e 84 a3 8a fb 37 d8 3f
       0.3440986052700121 0.3784169057744887
000750 a7 14 d0 95 f7 96 a5 3f 76 6b 25 da 24 d9 99 bf
       0.04216741279382435 -0.025242400946221953
000760 8d b4 23 25 75 00 70 3f 37 7a 57 43 69 e8 df bf
       0.0039066863994153935 -0.4985602529176591
000770 6f d6 fd ed b6 27 d3 3f 78 99 71 31 8e 64 e2 3f
       0.2992989849220526 0.5747748342226222
000780 a6 49 10 3d 29 98 b0 bf 86 a2 f9 ca e1 e0 d3 3f
       -0.06482179394541862 0.31060070821562424
000790 c0 d3 30 86 a1 e6 8c 3f 23 74 2a 5a 79 d8 e5 3f
       0.014111768634487265 0.682675052743097
0007a0 71 69 f5 23 fd 54 d5 bf 97 cc 83 a1 1d 4c d4 bf
       -0.333312306514606 -0.3171457364362111
0007b0 d2 d7 10 75 0b 20 ba 3f 95 f8 58 e8 83 7a c6 3f
       0.1020514641575965 0.17561386914343716
0007c0 27 88 95 12 04 71 9c bf 5f 84 2f fa c2 0b d4 bf
       -0.027774871477397902 -0.31321787292660547
0007d0 97 a8 d3 a1 7c ec d3 bf e0 79 cb 0c a0 e1 b5 bf
       -0.31130901149175244 -0.0854740172612547
0007e0 57 b1 64 d6 53 38 d6 bf cc 3f a0 52 38 f4 b2 3f
       -0.34718795716141443 0.074039001629216
0007f0 df 64 6a 08 95 86 bf 3f 83 26 ee c3 b5 83 b5 3f
       0.12314731078585649 0.08404098542646392

bias f8 [64]
000000 41 17 f5 da 27 da d6 bf be d6 0e 9f 47 ed 86 3f
       -0.3570651663070415 0.011194762746394967
000010 d3 38 ef f4 f1 d0 d4 3f 5a 94 ff ca 84 74 d2 bf
       0.32525299949055614 -0.2883617384343943
000020 85 66 7c c8 90 a0 d1 3f 90 cb 19 34 70 36 dc 3f
       0.2754251439924718 0.4408226498409755
000030 dc 59 54 35 3f a8 d8 3f 28 43 70 ea 57 1f d7 3f
       0.38526897628744705 0.36128805059802227
000040 2d c5 ab b6 03 d6 c9 3f 40 1b 47 83 68 8a c2 3f
       0.20184370440942115 0.1448488846783338
000050 b9 7f 12 8e a2 2f c5 3f 66 d3 bb 64 81 47 de 3f
       0.16551620423433436 0.47311434590601775
000060 72 1b 60 df 4d 14 db 3f 64 52 e7 4c 29 56 e4 bf
       0.42311426939016095 -0.6355177404426056
000070 1e 46 16 9e e2 ae ae 3f aa ea 8b c3 8a 52 a3 3f
       0.05992801837704696 0.03773912083666649
000080 d8 47 77 10 ea f7 ca 3f 02 78 64 b9 73 84 b7 3f
       0.2106907444381807 0.09186480785544407
000090 ad 08 57 03 30 53 a9 3f 54 6b 06 e5 bc ae d4 bf
       0.049462795646392756 -0.3231651531765938
0000a0 4a 3e 54 36 cc 40 e5 3f 56 6d d7 40 a2 25 c9 bf
       0.6641598759760623 -0.19646099248971421
0000b0 4a a7 6a 8d a2 4d be bf 28 ab dc 45 a5 5e d2 bf
       -0.11837211563638764 -0.287026708817097
0000c0 95 3d d6 a2 a0 5a c4 bf 4b 53 7d 86 f6 cb b4 bf
       -0.15901573134440797 -0.08123722823559125
0000d0 e2 82 21 67 4f 63 d0 bf 92 93 2d 4d 0d 79 d7 3f
       -0.25606141158463747 0.3667634252254227
0000e0 06 8e 37 1f c5 af d2 3f e1 71 46 ad 6f ed cc 3f
       0.29197814987693993 0.22599597893430626
0000f0 fb f3 75 b2 0f 87 a9 bf 4a 7a 66 57 dc 45 db bf
       -0.04985856107212069 -0.426138959266528
000100 fe 58 4c 44 74 7c 82 3f a7 ee 98 80 a5 bd a3 bf
       0.009026439985558184 -0.03855626292030694
000110 e1 3f 25 ef 52 ea ca bf 44 e9 d0 b7 ff 3e 93 3f
       -0.21027599980379733 0.018795009226076034
000120 03 11 e8 dc 35 8c c1 3f 09 41 bd a5 4c 66 d2 3f
       0.13709138189745582 0.28749386010623873
000130 9d c1 21 cb 8f cf d4 bf 41 75 9b e6 53 2b c1 bf
       -0.3251685603818489 -0.1341347576152803
000140 9b 45 40 6b 93 4e a9 bf 98 9f ae 34 2e d8 d6 bf
       -0.0494276112004954 -0.35694461006868883
000150 89 65 27 e2 d1 bd da bf 28 d0 64 05 24 7f d8 bf
       -0.41783568463650816 -0.3827600529359665
000160 78 44 d7 ee b1 26 d3 bf 71 2d fe 49 f1 2e d8 3f
       -0.2992367584639122 0.3778651449763038
000170 37 da 0d 31 ab 64 c1 bf 06 e5 00 c7 d2 e8 d9 3f
       -0.13588466544361363 0.4048354094880583
000180 37 13 71 64 95 3e c6 bf fd 7e d2 25 cb 1f dc 3f
       -0.17378489879970413 0.43944052404002304
000190 c5 9b 50 0f ff af b2 bf 91 45 3a 75 93 4f 6d 3f
       -0.07299799083612786 0.0035779838597782073
0001a0 b3 7c 84 8e 85 7d bd 3f 12 50 83 8c 84 d9 b0 3f
       0.11519655923301535 0.06581905775539124
0001b0 54 e6 4a 3b e5 52 cc 3f 0f 5f 86 a3 a1 34 b3 bf
       0.22127976794381488 -0.07502184145266376
0001c0 97 2c da 29 c9 64 bf 3f b5 2c 0f 44 80 cd d5 bf
       0.1226316191843345 -0.3406677879945151
0001d0 8a 0a d8 7a 5e 37 96 3f ca 6b b0 4a c0 cf d5 3f
       0.021695591209218303 0.34080512327062407
0001e0 72 60 27 1e 14 f8 cd bf 5b 8d f9 a2 3c a2 c6 bf
       -0.2341332576022555 -0.17682607610468434
0001f0 6e 11 60 7c 4f 1f cb bf 87 12 0f 24 da 53 d2 3f
       -0.21189302037249597 0.2863679268014398

weight f8 [64, 64]
000000 99 dd 03 3d 28 32 be 3f 4c f4 fd 65 95 11 ac bf
       0.11795283784510104 -0.05482165212649956
000010 7b ff 07 6f 05 d6 b4 bf 38 e6 ae 68 2a c8 18 3f
       -0.08139070473407443 9.453543513773192e-05
000020 5c 85 ba a0 e1 2f bc 3f ae 05 40 c6 6f 0e b9 bf
       0.11010561155355475 -0.09787653532114035
000030 eb 92 e1 3d 30 a4 a3 bf 06 f2 7d 3e 0e 87 b4 bf
       -0.038362033418513374 -0.08018578553851094
000040 3e 30 87 8f 5e 7f 81 3f fb 2f 31 53 2c 11 9f bf
       0.0085437190581602 -0.030338947847027935
000050 5d be 58 21 18 a8 b3 bf 5d b6 3d 8c 80 dc b1 bf
       -0.07678366483809769 -0.06977084564069842
000060 03 3d bd 5a 4b b7 c6 bf 2b fd c7 72 16 10 ca bf
       -0.17746869974732968 -0.20361595730353463
000070 68 46 0b 71 4c 04 c0 3f 64 29 2d 57 f9 6c c5 3f
       0.12513118285874048 0.16738812214527876
000080 f3 cc 86 be 5f 46 af 3f 5e 77 13 59 43 8d b3 3f
       0.061083786018025686 0.07637425350864421
000090 da 86 a1 59 c3 e5 bc 3f 6c 52 c3 f2 38 7e 9a bf
       0.11288090646987872 -0.02587212545116062
0000a0 db 56 0d cb 30 ed be 3f 46 26 9e fd 7f 80 b7 bf
       0.12080674130751438 -0.09180450383987546
0000b0 cf 34 bb e3 0c aa af 3f 58 d8 2a 5f 85 3a b8 3f
       0.06184425620959077 0.09464295934125866
0000c0 5e f4 3b 44 ed 81 ab 3f b7 c5 44 f5 04 1c a5 3f
       0.053725637988443195 0.04122939580919243
0000d0 5d 39 86 6a 0d 05 b7 3f c9 7a 26 78 f5 09 b6 3f
       0.08992084360781889 0.08608946021420673
0000e0 ad 71 1c 66 33 7b a0 3f 3f 93 4f 57 6b 77 b4 bf
       0.0321899473330832 -0.07994719392406767
0000f0 a6 97 9e c8 88 a3 86 3f 97 3c a9 08 f3 cc c4 bf
       0.011054104444905576 -0.16250455782799086
000100 6a f9 fa d1 84 80 cf 3f 9e 20 f1 68 ee 7d c0 3f
       0.2461095834059493 0.12884311794392017
000110 02 1b 40 ce 82 2f 79 3f 82 37 91 50 05 4b a6 3f
       0.006148825606948407 0.0435411129807184
000120 de cd 94 77 a1 b8 b3 bf 8c dd f7 87 d1 2d ab bf
       -0.07703599137749204 -0.05308394226806987
000130 34 36 ff 8c db 48 be bf 44 38 7f a1 a0 77 91 bf
       -0.11829921905810964 -0.01705790506076023
000140 0c b1 0e 02 a0 92 ba 3f 7f cf e8 43 71 56 76 3f
       0.10379982042531227 0.0054535316872267306
000150 24 53 6f 51 35 45 90 bf bf b8 1f 38 2b ae 83 3f
       -0.015889008613004255 0.009609544420495884
000160 6e 3c 5d 20 a6 3d ad 3f d2 7a c5 0f 41 49 8a bf
       0.057110969019611754 -0.01283503369694242
000170 bf 93 ea 99 b3 50 a5 bf f2 a0 29 a4 fd 44 c9 bf
       -0.04163132909642497 -0.19741793170692962
000180 70 28 16 5c 52 6c c9 3f 4b a2 01 c5 6e fa a9 3f
       0.1986182164803867 0.050738774822836584
000190 ee 14 32 3a 14 d1 85 3f de dd cb be 52 f3 a9 bf
       0.010652692819585554 -0.050684533873148516
0001a0 23 32 da a7 fd a3 af 3f 1a 1b 53 0a 1b 41 b1 3f
       0.061798025836740565 0.06739968301836222
0001b0 b6 05 32 01 52 c0 9b 3f 22 77 dc 7f ab 05 ae 3f
       0.027100831339799313 0.05863700805478646
0001c0 7e dd 2b 76 e6 5f bd 3f 77 54 56 b4 fa be b4 3f
       0.11474457154314696 0.08103911307110133
0001d0 61 5d 44 fc e2 42 c2 3f 21 f1 a5 03 27 d8 a1 bf
       0.14266621892668765 -0.03485223693403073
0001e0 38 92 08 ec db 17 89 3f a5 01 18 81 0c d2 b2 bf
       0.01225253881518383 -0.07351759101584905
0001f0 6b e9 15 8c dd 79 bb bf c4 69 cb 30 3b 92 c8 bf
       -0.10732826871927663 -0.19196262247608165
000200 c3 7f dd bf 88 78 b1 3f 11 1f 0d bd 0e 08 c1 bf
       0.06824545559129462 -0.13305839758890461
000210 b5 f2 4a 27 5c be b6 3f 19 33 8e 6e 11 25 95 3f
       0.08884216269775431 0.020649216053743567
000220 7d 8c a0 b6 70 9b c0 3f 19 8a 11 2d c9 d4 c2 bf
       0.1297436610921955 -0.1471187086163617
000230 86 13 13 c3 01 63 c1 bf ee 15 47 a4 87 7a bc bf
       -0.1358339502823151 -0.11124465714154727
000240 44 cd 27 9a 0b 5b c2 3f 38 db 34 bd c6 5f b8 3f
       0.1434034826957974 0.09521143073366722
000250 eb 20 d7 3a 45 cb b7 3f 42 92 cd 9d a6 22 b0 3f
       0.09294541060001264 0.0630287299405348
000260 55 42 a3 e3 81 31 b5 3f d2 96 a6 93 6d 61 c0 bf
       0.08278667266427793 -0.12797326764591915
000270 a3 0d 14 d2 06 ff c6 3f a9 2a 06 08 f0 0d bd 3f
       0.17965779550295932 0.11349392124081227
000280 db 30 f6 2a 26 26 b7 3f 7b da fa 34 2e 03 b3 3f
       0.09042585896367276 0.07426728051619051
000290 cf ac a7 6c 46 b7 a4 3f 7e 3a 0e 31 c7 6b b7 bf
       0.04046077801089042 -0.09148831317564007
0002a0 87 77 a0 6b b7 90 b2 3f e6 a0 86 98 24 4a b6 bf
       0.07252069833381657 -0.08706883167053867
0002b0 78 34 c8 27 1c f1 a7 3f 20 23 de 41 cb 73 5d bf
       0.04676139817829833 -0.0017976269659547087
0002c0 90 cf c6 4d b5 78 a1 3f 44 12 ff 01 61 37 c2 3f
       0.034124055618490634 0.1423150310275948
0002d0 cb b3 7b ff d2 53 96 bf 6d b7 3f a5 d9 f1 ac 3f
       -0.021804138987977766 0.056532670423492394
0002e0 6d b6 4a d9 a6 61 a4 bf f2 c0 b2 b8 35 70 7b 3f
       -0.0398075237511478 0.0066988085265366915
0002f0 e4 02 55 33 2f 8e a2 3f 76 4d bf 76 0b 01 c4 bf
       0.036241030708429794 -0.15628188417631933
000300 79 92 99 fb de 85 ac 3f a8 42 38 10 6b 8b 8b bf
       0.05570885487830863 -0.01344951289414216
000310 a7 04 87 aa 69 22 a3 bf 8a 2a 09 00 30 a5 7b 3f
       -0.037371923509917075 0.006749331951662394
000320 10 f1 b6 91 33 ba a1 bf fe 44 de 35 d2 73 63 3f
       -0.03462372926466817 0.0023745637581177306
000330 2e 2a 5b ba 39 a3 93 bf fd 74 2b 7a 5f ca b4 bf
       -0.019177343367838322 -0.08121296627674109
000340 e0 92 2b 0c c1 0f b0 bf dc 2c d7 c5 e2 ff b5 3f
       -0.06274038836597695 0.08593575792399427
000350 f4 1e 6f fe 71 ab 9e 3f 36 a6 8c d2 3e f5 90 bf
       0.02995088687364862 -0.016560536957660875
000360 b9 62 33 d8 d3 ce a9 bf a4 b1 95 06 bb 5a a3 3f
       -0.0504060937325383 0.03780159430866384
000370 a5 c5 da 15 2c 1c a2 3f 95 32 a0 c6 64 aa c1 bf
       0.03537118689326783 -0.13801250170253768
000380 cf c2 60 92 be 65 b7 3f e7 99 3f cc 3b 36 ba bf
       0.09139624665909739 -0.10239003883871299
000390 49 a2 59 5f 5c 34 96 3f 37 ad 9f 0f 61 d6 94 bf
       0.021684115714750516 -0.020349041536900727
0003a0 59 c2 45 99 df 9b ae 3f 2e c9 31 e6 bc 9b bc 3f
       0.059782969913503244 0.11175137157423329
0003b0 4d 82 81 33 09 08 c3 3f 08 3d e7 c8 ec df b9 3f
       0.14868273749290709 0.10107307343354333
0003c0 be 4a 6b e0 16 53 8f 3f 67 e7 48 ff b1 25 b3 bf
       0.015295199130752276 -0.0747939346555576
0003d0 fc d0 ac 16 46 02 90 3f 60 53 22 70 45 20 b5 3f
       0.015633673795677247 0.08252367007874062
0003e0 8c 1b 24 34 a2 c3 aa bf a7 64 bd 28 46 ce b2 3f
       -0.05227381597983713 0.07345999235748711
0003f0 21 d3 d4 ec da 22 b4 bf 85 11 b4 64 e8 0b 7a 3f
       -0.0786568477822809 0.00635901240025694
000400 29 86 23 b8 43 ee c2 3f 03 4e 5e 1c 41 90 a3 3f
       0.14789625636244466 0.03820994826596904
000410 96 2a 7a d0 a3 99 92 bf 6c a1 3d ae fa ce 99 bf
       -0.018164214705886104 -0.025203625569163376
000420 55 7f b5 16 3c 10 87 bf 11 ed 40 03 5b c6 b7 bf
       -0.01126143402387895 -0.09287041501459138
000430 f5 14 d0 5a ff 54 9b 3f c4 09 1e 53 ed 7b a3 3f
       0.02669142715241875 0.03805486335388111
000440 8e f5 9e 30 1a c3 ab 3f 74 f3 b7 be db 6b 91 bf
       0.05422288745419755 -0.017013009563004514
000450 14 a8 28 0a ba f7 ba bf fd 9a 05 97 10 85 bc bf
       -0.10534250972764908 -0.1114054077821542
000460 97 7d a1 a9 3f d7 c3 bf b0 1f 08 ea ce b0 8d bf
       -0.15500636847262392 -0.01449739124019786
000470 75 81 e3 a5 98 ce 9b 3f 44 bf c8 c3 99 a4 96 3f
       0.02715528976921307 0.02211227662536365
000480 d3 20 45 51 2c 96 ad 3f 35 d3 12 c5 e0 a0 76 bf
       0.0577863549429495 -0.005524518973449234
000490 ef f8 44 87 a6 3f ba 3f 7b 80 20 4f 39 ce b5 bf
       0.10253372957683714 -0.08517797643480833
0004a0 9e b8 82 16 b1 08 c5 3f 33 b9 3d a3 df 5f a2 bf
       0.16432775115157922 -0.03588770740212723
0004b0 15 f3 38 30 14 0d ba 3f 9e 75 0d 98 b8 57 a2 3f
       0.10176206757837421 0.03582550865278765
0004c0 ca f6 b6 1b 52 f2 c2 3f 85 bc e9 b4 57 24 c5 3f
       0.14802004197365753 0.16517158826488668
0004d0 cd ff f8 a4 c9 9a a2 3f b4 0d 3e cc 0d 92 aa 3f
       0.03633718622995694 0.05189555280869787
0004e0 17 8e 6e 05 3b 98 c2 3f a2 c7 e3 91 fa 6d bd 3f
       0.14527070775248838 0.11495939313661421
0004f0 76 91 70 e5 c0 c3 a3 3f 0d 22 5c 6a fd 24 b6 bf
       0.03860285568979098 -0.08650192114522089
000500 6f 6b 1d a9 96 41 ae 3f af 5c a4 a2 63 fa a5 3f
       0.05909415068045731 0.04292594299675422
000510 09 f9 87 67 86 2c b8 3f cb 49 bf 4b 42 d5 a4 3f
       0.09442939784637273 0.0406895368065708
000520 ab d9 ed 4e f0 83 a4 3f 19 4f 64 65 06 3a b1 bf
       0.04006911242952368 -0.06729164100061914
000530 a3 69 cf 34 b3 87 b2 3f e7 53 57 cd 92 71 bc bf
       0.07238311805068647 -0.11110799325190578
000540 6c 2f b1 00 62 2c a6 3f db e1 5c 91 81 5f c4 3f
       0.04330736406754351 0.15916461561006554
000550 4b 54 af 47 7c fc a6 3f 8a fb 4d ca c6 3c ba bf
       0.044895061255069445 -0.10248987616613028
000560 29 e1 8f 74 83 cf a2 bf 92 ab 8e 89 95 4b 86 bf
       -0.036739452341807706 -0.010886352787414375
000570 73 d8 78 f0 bc c3 ad bf 60 26 57 8a bd 52 b8 bf
       -0.05813398776483405 -0.09501251819087875
000580 39 12 fa 2b e0 bc a8 3f 6a 4f d5 74 d1 06 a0 3f
       0.04831600701166789 0.031302018653746114
000590 47 f8 b9 1f 42 de b8 bf b4 68 66 38 77 89 b5 bf
       -0.09714139246531871 -0.08412881018594726
0005a0 85 69 15 28 66 54 b6 bf bc 00 ef 92 9b da b5 3f
       -0.0872253272877171 0.085366938946211
0005b0 ed 09 16 bf 36 b9 c7 3f a2 19 7c 24 dc 25 a7 bf
       0.1853397782361549 -0.04521072335596733
0005c0 f1 41 1c 9d 51 5a a2 3f d9 cf 32 00 b3 94 b4 bf
       0.03584532778598149 -0.08039397005887795
0005d0 12 2f 43 f8 d1 00 97 bf 25 bd 13 6a e6 37 b2 3f
       -0.022464066293465264 0.07116546716473644
0005e0 25 6d 98 3a f8 e4 84 3f 2e 5a 13 72 e2 19 c0 3f
       0.010202349937620323 0.1257899338731518
0005f0 07 8f 80 33 ec 56 c2 bf 4e 51 40 6d dd 07 7f 3f
       -0.14327766909365655 0.007575859974185596
000600 46 61 82 44 94 ae 83 3f 2d 34 0b 2f e5 7a b3 bf
       0.009610327091920678 -0.07609398268250862
000610 a8 43 dc be a2 00 c3 bf 9f ef f6 6c 00 f3 b0 bf
       -0.1484569007812102 -0.06620791111248402
000620 4c f4 6c e9 e1 79 b7 bf 70 fb 66 59 ce f1 c2 3f
       -0.09170352887027028 0.14800433507295052
000630 50 3d 4a 3f d1 c1 b2 3f 68 ab 59 81 17 a3 96 3f
       0.07326991839567154 0.022106520910181088
000640 61 0f 8d 39 90 be be bf d4 37 80 75 42 fa a9 bf
       -0.12009526639036273 -0.05073745426498957
000650 4c cb 5e 42 8f 71 93 3f 77 95 3a e5 39 1b b7 3f
       0.018987883020325655 0.09025918814093879
000660 ca 1d f6 c6 3e 3a 9d 3f 64 d7 61 29 26 44 33 bf
       0.02854250039447751 -0.00029397899323357055
000670 30 ec d4 fb a3 38 bd bf f2 e9 db b8 4e 1d c2 bf
       -0.11414551637874193 -0.1415193941719078
000680 9c 2f cb 5a 6b bb c0 3f 42 18 3b bf 31 af b6 bf
       0.13071958478246593 -0.0886107532379308
000690 83 c1 cd f9 6d ba c0 bf 9d 6d a1 d2 7b f1 98 3f
       -0.13068937966773939 0.024358687144155778
0006a0 b6 7e 68 67 c2 b9 bd bf 60 ff 06 f5 b0 bf 93 bf
       -0.11611571335424284 -0.019285931544572477
0006b0 34 3a 2d d9 b7 42 b2 3f b5 4c 80 81 2b 4d a1 3f
       0.07133053829350261 0.03379188495468936
0006c0 07 e6 a6 d7 99 d9 85 bf 51 2d 39 66 0b 1f ac 3f
       -0.010668947118449358 0.05492435095637894
0006d0 7d db e8 dd 24 0e b5 3f d4 ba ee 17 23 fa a1 bf
       0.08224707048144171 -0.035111519500210214
0006e0 d1 55 71 38 af 41 ad bf bf 43 e2 4a 59 d9 9f bf
       -0.05714175762174601 -0.031102557368800406
0006f0 eb 1b be 59 5a a6 b5 3f 55 78 3b e5 a0 c9 c4 3f
       0.08456959429723525 0.1624032134340633
000700 3e 4f 7f a8 a7 66 c9 bf 5c dd 05 97 bf 30 b8 bf
       -0.19844527938277595 -0.09449384152491319
000710 2a bd 17 3d 55 e2 8b bf 59 e9 ab 33 72 92 b0 3f
       -0.013615289618398824 0.06473459016334483
000720 33 1d 27 87 d5 90 bf 3f ba 16 52 5c df dd bf 3f
       0.12330374288204808 0.12447925571367593
000730 35 73 d1 40 15 15 a6 3f 3a 87 49 b6 78 37 b0 bf
       0.043129600679753834 -0.06334642839786123
000740 7a f7 4f 18 93 56 ac 3f bb c5 6a 74 a6 cb 9f 3f
       0.05534801170141086 0.03105030141404595
000750 5a ad 50 73 b8 5b c0 3f ef 72 1d 1a 06 39 be 3f
       0.12779908781645127 0.11805761468481156
000760 be 8c 49 eb d2 82 b3 bf 65 b2 bb 67 d2 0a c6 3f
       -0.07621496433562222 0.17220525803658684
000770 a7 0c 68 69 47 04 bf 3f 21 4f fb 6a 4c 69 b6 3f
       0.12115904162787904 0.08754422771317795
000780 00 fb 44 c8 1f 74 c1 bf af 80 e5 f2 2b 43 bc bf
       -0.13635632780820828 -0.11039995842066007
000790 d6 f4 7d ce 72 7d c1 3f dc b1 c4 6f 3f f7 80 3f
       0.1366408832799723 0.00828408775176908
0007a0 e7 64 62 2a 64 10 6a bf be d2 81 74 07 a0 b9 3f
       -0.003181644092432923 0.10009810060894161
0007b0 80 1b 7b 48 5a e8 c1 bf e3 4c d5 51 5b a8 b7 bf
       -0.13990334071260335 -0.09241266963845222
0007c0 20 6f e9 21 10 31 99 bf 13 39 ac 4a db ab b6 3f
       -0.024601223058524302 0.0885598237329968
0007d0 68 85 d0 01 ba 1b b1 3f 4b b0 06 6e c6 6b c0 3f
       0.06682932419109522 0.12828903553361423
0007e0 09 e8 29 19 47 5b a1 3f 99 3e 63 b9 24 c1 b0 3f
       0.03389951879667314 0.06544713522020586
0007f0 2d 09 c2 f0 41 83 85 bf 66 2d 83 1c e4 23 9a 3f
       -0.010504260215615869 0.02552753852868985

bias f8 [64]
000000 2a 9d 00 a9 d1 39 9c 3f b9 4c 5d ed 91 05 9e bf
       0.027564311924064423 -0.029318122971130765
000010 30 0b 22 3f a1 f0 b7 bf 28 29 11 ca c8 2d b9 3f
       -0.09351547042210195 0.09835486348416522
000020 76 30 56 ba 4d 37 cd 3f 07 ac 43 86 e3 29 b1 3f
       0.22825023268194727 0.06704542186678007
000030 5c 03 17 6a 81 a5 ba 3f 58 52 88 26 df 82 ba 3f
       0.10408791389546707 0.1035594433854582
000040 1d 96 96 9c 8d 3c c3 bf 1b 2a 86 6a 3d fb a7 3f
       -0.1502854361144025 0.04683868337004445
000050 7a 34 c9 4e 4e 96 bc 3f 1e e8 5e 70 e3 ac 91 bf
       0.11166848586545255 -0.017261079534115813
000060 b5 08 90 22 66 46 9b 3f c2 59 ee 18 a8 38 be bf
       0.026635738238845536 -0.11805201157253634
000070 72 dc 20 1f 73 22 6e 3f 91 90 68 e2 cd 74 bb 3f
       0.003678536269059723 0.10725104119825547
000080 ac 22 6e b3 ec cb a8 bf 61 88 19 ca 70 78 be 3f
       -0.04843082132635365 0.11902527746272674
000090 1c 05 d0 64 67 11 86 3f 5e 8c 50 da 30 51 af bf
       0.010775382770591473 -0.06116631188367515
0000a0 5f eb f9 55 f9 97 a3 3f fc 4f 67 fa 1e c1 ae 3f
       0.038268844361445835 0.060067146365014396
0000b0 1b f7 42 b6 f9 98 a6 bf ee b5 d4 6c 5f 07 60 3f
       -0.04413585996506538 0.001956640603245622
0000c0 aa 2d 27 ad e8 12 aa bf a1 a9 e8 95 a7 3f a2 3f
       -0.050925513398023384 0.035641896294993154
0000d0 f9 ae e7 55 a2 f9 94 3f 43 22 6e 6d 01 cc a1 3f
       0.020483528607583932 0.034759564026050536
0000e0 60 a6 7e 5a 07 c3 c0 bf 85 52 7d a9 48 41 bf bf
       -0.13095180433929254 -0.12208990228584511
0000f0 50 2b cf d5 6f 90 b5 bf 5f c0 6f b7 f2 1c b8 3f
       -0.08423518152191645 0.09419171312743078
000100 7d 3f 44 a1 7d 78 84 3f 7b d9 46 90 84 74 be bf
       0.009995442851987718 -0.11896542093641031
000110 60 6b 9a f0 dc 2e 9c bf f6 60 ff 72 dd f6 b4 bf
       -0.02752251833463093 -0.08189186151082936
000120 02 2b 3f c9 dc b3 bb 3f 74 81 9e 6b 3f be 7c bf
       0.10821323312044842 -0.007017371879470925
000130 37 30 23 23 42 27 bc bf e2 85 c3 ce 04 23 a0 bf
       -0.10997403486106881 -0.031517172088353154
000140 9c 77 04 2c 35 9d c0 bf 8f 68 5c c1 68 98 b7 bf
       -0.12979759835519367 -0.09216932984091585
000150 e8 1e 02 2b 51 87 a6 bf 0f 05 29 7b cc 41 a5 3f
       -0.04400113725665539 0.04151762965603655
000160 e7 5b 5d b3 2a 7b a7 bf 86 f8 25 4f d5 e9 d1 3f
       -0.045861563105681395 0.279897048276219
000170 72 ab 01 24 54 69 a9 3f 06 9e 1c cd b3 ac b2 bf
       0.0496317190125727 -0.07294772870647401
000180 a5 21 df b5 25 a1 94 bf 17 5d 01 c5 6b 94 5c bf
       -0.020145978189050635 -0.0017443706929237185
000190 35 eb 66 92 7e 42 aa 3f f7 51 59 c8 31 10 b2 bf
       0.05128856217512238 -0.07055960789995895
0001a0 2c 20 08 a1 4e 63 c0 3f 59 e2 61 32 04 c3 ae bf
       0.12803061354520773 -0.06008160700816196
0001b0 ce 94 42 ee 5b d9 ae 3f 5a 1f cb f7 0c 8d a7 bf
       0.06025206836174278 -0.0459980061037288
0001c0 f2 ba 71 8a 11 9a 7d bf bd ec fa 40 90 7c ba 3f
       -0.007227009314290754 0.10346318804197359
0001d0 64 70 7f 17 4a d5 a2 bf ea ed d9 96 f5 13 a8 3f
       -0.0367835191425179 0.047027277626479805
0001e0 9a 7f 36 ac 00 00 59 3f ad 3b 51 bc fc 63 98 3f
       0.0015258795327568243 0.023818921083428247
0001f0 77 4e aa e9 ba d0 c8 bf ae 27 18 6e 37 6b 8b 3f
       -0.1938699379867221 0.013388093039811224

weight f8 [1, 64]
000000 c4 94 8f 8c 22 f6 e0 3f c6 fc 8e 06 6a a9 d2 3f
       0.5300457711533899 0.29159021988375533
000010 82 c7 4f 30 c2 75 d3 3f 5a a1 d8 1e c3 41 da bf
       0.3040624114793148 -0.4102638055069484
000020 d0 23 97 28 c0 28 e3 bf 84 b2 e6 30 05 af e0 bf
       -0.5987244408398684 -0.5213647799588021
000030 a6 4c 5b 99 d6 e4 bf bf e6 8f cb b1 19 0f ca bf
       -0.12458554500635674 -0.20358582669643893
000040 c3 00 24 b8 b4 a2 d4 3f a8 b9 d3 61 4f 1c e0 3f
       0.32243078215107007 0.5034558211025812
000050 4d f7 78 03 bc 30 d5 bf a2 cc 1b 81 77 12 b0 bf
       -0.33109951342691063 -0.06278178121628966
000060 f7 08 83 0e ff af e0 bf bc ae 59 ff 84 20 cf 3f
       -0.5214839251932791 0.24317991703298059
000070 88 fa 6c 07 74 22 d8 bf 38 57 41 27 81 56 d0 bf
       -0.3771028587833958 -0.2552798159934926
000080 7f 97 ae a6 70 7c b9 bf e9 45 7b d0 67 32 c2 3f
       -0.09955505437264199 0.14216325454485393
000090 1d 83 07 8d d2 a8 d5 3f a8 a7 e0 82 2b 32 d8 bf
       0.33842910549542343 -0.37806213170062586
0000a0 6d cf e5 d1 46 83 d7 3f 2b 7b 51 f0 69 e0 c4 3f
       0.36738749025175005 0.1630985663823251
0000b0 95 a1 d4 28 19 91 e2 3f 83 93 38 e9 ae 4e e2 bf
       0.5802121922943565 -0.5721048884484933
0000c0 85 8e da fd 24 34 8d bf 7d ab 6b 97 aa 85 b2 3f
       -0.014259613987923867 0.07235208699027669
0000d0 e1 c9 ad 62 08 40 d6 bf 53 5e 1c 65 b2 74 cc 3f
       -0.34765824925048433 0.22231130539943197
0000e0 a1 86 cb 6c ed 5f d3 3f 52 0e 35 10 89 4c df bf
       0.302729946370258 -0.4890463503145145
0000f0 ba 96 4d d1 c2 3b ca bf 49 14 f1 88 ba 70 b0 bf
       -0.20494876117589006 -0.06422010272315605
000100 59 67 ec c7 c1 35 dd 3f ef 26 b3 6d d7 69 b8 3f
       0.4564060642602406 0.09536501339166724
000110 43 a5 1d 28 a5 38 ee bf 5d dd f1 3f e2 4c e1 3f
       -0.9444146903526093 0.5406352280541956
000120 5f 11 ac 9f 9d 61 de bf af b6 a6 26 0a b8 b9 bf
       -0.4747079905794375 -0.10046447223313736
000130 22 22 74 41 be 68 cc bf ec eb 28 b4 a9 07 e1 bf
       -0.22194650836924362 -0.5321854132411068
000140 43 fe 8c 13 f0 3c c6 bf 62 5b 09 f4 ca c9 b8 bf
       -0.1737346740210218 -0.09682911355899429
000150 be bd c4 46 a9 48 be 3f 6a e2 a1 35 49 b3 f6 3f
       0.11829622247454716 1.418770989896212
000160 18 19 52 df 6b ad bd bf 9b c8 c1 4b 3a 39 e1 3f
       -0.11592745020070472 0.5382358054760233
000170 ce 08 64 ec 71 09 c1 bf c6 b6 d6 a2 b9 86 db 3f
       -0.13310073893086954 0.4300979700300157
000180 c8 cc c6 c8 13 23 ec 3f 7f 26 16 a9 2b 76 d2 bf
       0.8792818948189955 -0.2884625579104991
000190 9a 11 86 d4 b3 c5 de 3f 88 14 33 93 bb d4 d3 bf
       0.4808168006350343 -0.30985917448953915
0001a0 39 28 31 66 6c 38 ba 3f b7 ed 37 38 70 db c2 bf
       0.10242345328256953 -0.14732172722857026
0001b0 df de 53 9e 12 be c6 bf e5 56 8f 2a 32 bd e9 bf
       -0.17767555933800502 -0.804345210194438
0001c0 14 ae 33 e4 29 f5 e2 3f d1 69 3a dd ea 9f cc bf
       0.5924272019451018 -0.22363029291302763
0001d0 25 2f ee c2 92 1f bf bf a8 11 7f c2 e2 1c a5 3f
       -0.1215755201248468 0.04123600601409133
0001e0 36 e8 03 63 c9 1b d0 3f 55 27 3b 14 d9 fe b0 bf
       0.25169596356829815 -0.06638867134020406
0001f0 d4 09 e2 a2 11 f5 c9 bf 4d 48 65 13 67 32 e6 bf
       -0.20279140904683735 -0.6936526659794794

bias f8 [1]
000000 16 02 0f 7c 20 f4 b5 3f
       0.08575633076453246
